CNN/Trained_CNNs/model_multivar_21032023.pt (torch, 395911 bytes, 9 tensors)

conv1.weight f4 [16, 8, 3, 3]
0.07764623 0.03767602 0.08008373 -0.057202313 -0.10510149 0.0590716 -0.025882272 -0.06098932
0.11877093 0.039972965 0.09073834 0.0911286 -0.095446445 0.10056931 0.098290086 -0.1004099
0.0043249866 0.07080795 0.03599734 -0.08031978 -0.0781578 -0.08342061 0.05058821 -0.0967542
0.013918097 -0.06862028 -0.066223115 0.096597254 -0.09759717 -0.0008766273 0.07739216 -0.07497151
-0.043979302 -0.037075628 0.10138353 0.032713372 0.061584692 -0.06333611 -0.11931192 0.07029461
0.0673638 0.08111826 0.04814114 0.042513352 0.038099233 -0.05717936 -0.036863066 0.11197158
-0.00020357981 -0.0018767659 -0.08704565 0.09188259 -0.013813471 0.011748906 -0.006739481 0.076823145
0.10524951 0.10492779 -0.08042837 -0.036730725 -0.056385465 0.04628052 0.044441115 -0.11377632
-0.09653996 -0.02983553 -0.011382669 0.08132212 0.03117764 0.08153878 -0.09062079 0.09967134
0.1120023 0.075297 0.018827936 0.12222349 0.0046719257 -0.0048429435 -0.0056240247 0.045275196
0.052203916 0.08913912 0.070395775 0.04527351 0.01995979 0.02203253 0.075603776 -0.050185196
0.06745831 -0.06928206 -0.05533754 0.038096085 -0.07810934 -0.054812863 0.026244245 -0.008777992
0.06646355 -0.07828603 -0.10672456 0.0029131535 0.044407647 0.0014797578 -0.08827456 -0.08362789
0.036748484 0.011311888 0.06082489 -0.06760852 0.08880587 -0.0033684503 0.030947866 -0.071768165
-0.013462319 -0.028204598 -0.08977832 0.07551453 0.04081031 -0.08447889 0.021592021 -0.038802486
-0.12543592 0.014039581 -0.0297535 0.06216503 -0.016875919 -0.07713285 -0.048857924 0.030585853
-0.09542658 -0.00012632975 -0.0983606 -0.10045441 -0.031513847 0.08271554 -0.06440778 -0.06591805
-0.047885887 -0.08083376 -0.013499818 -0.101326205 0.047499217 -0.1123549 -0.11131715 -0.109191835
-0.07849426 0.020255757 0.08029554 -0.07308095 0.06359553 -0.10584055 -0.09561837 0.03335747
-0.023919784 -0.058083523 0.009379029 5.0251715e-06 0.08916272 0.040463578 -0.007956964 -0.09888672
-0.04088546 -0.09435722 -0.024620812 -0.030115295 -0.027028136 -0.091566436 0.04444873 0.043691102
-0.015719164 -0.046943113 0.02670892 0.07175864 0.044771794 0.015229299 0.015850648 0.022138277
0.012894194 -0.029629877 -0.08113753 0.076570444 0.058181264 -0.12025704 0.006199297 -0.08919737
0.09858634 -0.015904028 -0.0723713 -0.07479698 0.054900087 -0.028753705 -0.011537267 0.108242795
-0.036416072 -0.06957424 0.029792244 0.024344368 -0.078093395 0.038598977 -0.075127386 -0.07253353
-0.08763378 -0.032923646 0.002456548 -0.04792633 -0.06999953 -0.045978837 0.028618824 0.008816952
-0.11566664 -0.09791144 0.0864692 0.013072056 0.06455939 -0.0030338427 -0.1140112 -0.11141278
0.06076438 -0.037185382 -0.059009627 -0.12793599 0.054019608 0.004308962 -0.09524536 0.0076212776
-0.0875793 -0.032958575 -0.0678591 -0.041579094 -0.027013974 -0.09448544 -0.08201184 -0.11164749
0.07209572 -0.07144477 0.08289803 0.073823415 -0.0709259 0.072828144 0.0021563454 -0.014357701
0.06187528 0.075959265 -0.011697099 0.113965146 -0.07140986 0.07999195 0.064318866 0.100410774
-0.007704196 0.1104838 0.09587777 -0.078305304 0.09980183 -0.10603323 0.10370796 -0.09711716
00000000: fd04 9f3d 2c52 1a3d f002 a43d f94c 6abd
00000010: 733f d7bd 10f5 713d 0f07 d4bc f0cf 79bd
00000020: 2c3e f33d b1ba 233d 06d5 b93d a2a1 ba3d
00000030: 6d79 c3bd 48f7 cd3d 504c c93d b5a3 cdbd
00000040: 9eb8 8d3b c203 913d f271 133d b27e a4bd
00000050: 3211 a0bd 6dd8 aabd 9535 4f3d 1127 c6bd
00000060: bb08 643c ca88 8cbd fc9f 87bd c8d4 c53d
00000070: 06e1 c7bd 76cd 65ba c87f 9e3d aa8a 99bd
00000080: a423 34bd 9ddc 17bd 2ba2 cf3d 75fe 053d
00000090: 3b40 7c3d 5db6 81bd cf59 f4bd 9ff6 8f3d
000000a0: 08f6 893d 5521 a63d a52f 453d 7b22 2e3d
000000b0: f10d 1c3d e834 6abd bafd 16bd 5b51 e53d
000000c0: 0a78 55b9 d0fd f5ba fd44 b2bd f02c bc3d
000000d0: e651 62bc 7c7e 403c ddd6 dcbb 7455 9d3d
000000e0: 0e8d d73d 62e4 d63d a1b7 a4bd f572 16bd
000000f0: 72f4 66bd a490 3d3d e307 363d 8f03 e9bd
00000100: beb6 c5bd a469 f4bc 607e 3abc 368c a63d
00000110: 4068 ff3c cefd a63d 6597 b9bd 7d20 cc3d
00000120: 7661 e53d 5035 9a3d 0b3d 9a3c 4f50 fa3d
00000130: f416 993b 8eb1 9ebb bd49 b8bb 7c72 393d
00000140: c6d3 553d 928e b63d a92b 903d b770 393d
00000150: b782 a33c 907d b43c 27d6 9a3d fe8e 4dbd
00000160: 9527 8a3d c1e3 8dbd 9ea9 62bd a40a 1c3d
00000170: caf7 9fbd 7483 60bd 2cfe d63c 91d1 0fbc
00000180: 0b1e 883d 6d54 a0bd 6892 dabd 9bea 3e3b
00000190: cbe4 353d 6ff4 c13a 4bc9 b4bd 1945 abbd
000001a0: 9485 163d 7f55 393c 8523 793d 5676 8abd
000001b0: dadf b53d 38c1 5cbb 6186 fd3c 30fb 92bd
000001c0: 0f91 5cbc 540d e7bc b2dd b7bd 5da7 9a3d
000001d0: b628 273d 4503 adbd c0e1 b03c 5bef 1ebd
000001e0: 4672 00be 4506 663c 9dbd f3bc c2a0 7e3d
000001f0: 5e3f 8abc d4f7 9dbd 3f1f 48bd 2f8f fa3c
00000200: 036f c3bd 6277 04b9 4871 c9bd 0bbb cdbd
00000210: aa14 01bd c466 a93d 3ae8 83bd 0b00 87bd
00000220: fe23 44bd 2c8c a5bd 572e 5dbc 1d84 cfbd
00000230: 8a8e 423d 531a e6bd 3ffa e3bd f89f dfbd
00000240: 99c1 a0bd 67ef a53c fd71 a43d 77ab 95bd
00000250: 603e 823d eec2 d8bd 90d3 c3bd d8a1 083d
00000260: 6cf3 c3bc fde8 6dbd 80aa 193c e59d a836
00000270: f29a b63d 23bd 253d ed5d 02bc 1f85 cabd
00000280: 8377 27bd 5c3e c1bd 96b1 c9bc 5ab4 f6bc
00000290: 1c6a ddbc 2f87 bbbd df0f 363d 71f5 323d
000002a0: 7ac5 80bc 6c47 40bd aacc da3c 32f6 923d
000002b0: a162 373d 4f84 793c 38d9 813c 555b b53c
000002c0: 2b42 533c 5bba f2bc 6f2b a6bd f7d0 9c3d
000002d0: 7a4f 6e3d 5349 f6bd 7923 cb3b 1cad b6bd
000002e0: a3e7 c93d 2a49 82bc 6737 94bd 292f 99bd
000002f0: eade 603d e48c ebbc ce06 3dbc 66ae dd3d
00000300: 0529 15bd f07c 8ebd dd0e f43c d76d c73c
00000310: 6eef 9fbd f619 1e3d 63dc 99bd 768c 94bd
00000320: 5779 b3bd f2da 06bd 09fe 203b 664e 44bd
00000330: ea5b 8fbd 4e54 3cbd 0672 ea3c fa74 103c
00000340: a2e2 ecbd cb85 c8bd c416 b13d 2d2c 563c
00000350: b737 843d 6fd3 46bb b47e e9bd 622c e4bd
00000360: 12e4 783d b34f 18bd 14b4 71bd a701 03be
00000370: aa43 5d3d 3132 8d3b 0010 c3bd e9bb f93b
00000380: c75c b3bd 92ff 06bd b6f9 8abd d74e 2abd
00000390: 694c ddbc 9581 c1bd d3f5 a7bd 70a7 e4bd
000003a0: eca6 933d a351 92bd 71c6 a93d bb30 973d
000003b0: 9941 91bd ec26 953d 7951 0d3b 903c 6bbc
000003c0: ef70 7d3d 8890 9b3d 30a5 3fbc 8f66 e93d
000003d0: 553f 92bd d2d2 a33d 9cb9 833d 2aa4 cd3d
000003e0: 7b73 fcbb 5545 e23d 905b c43d 885e a0bd
000003f0: e764 cc3d f327 d9bd d764 d43d 5de5 c6bd

conv1.bias f4 [16]
-0.07609615 0.041365333 0.103330106 0.03396352 0.016890842 0.035702746 -0.052389205 0.108197294
-0.10560306 0.08875401 -0.06055952 -0.0073701274 0.017602742 0.0954223 0.10105146 0.0679321
00000000: 4cd8 9bbd b26e 293d bc9e d33d 551d 0b3d
00000010: aa5e 8a3c 0b3d 123d 1096 56bd 8b96 dd3d
00000020: 6b46 d8bd aac4 b53d 420d 78bd 1c81 f1bb
00000030: a033 903c c46c c33d 11f4 ce3d fc1f 8b3d

conv2.weight f4 [32, 16, 3, 3]
-0.0289596 0.057093732 0.06393234 0.06601583 0.023553206 -0.00071216904 0.03053255 0.071735725
-0.036491852 -0.030709261 -0.023243979 0.07435823 0.061001923 0.057519995 0.016908316 -0.05863147
-0.011367342 -0.022664146 0.068831325 0.031695794 -0.051701434 -0.044548634 0.031183487 -0.058726124
0.079673454 0.030650286 -0.042249072 0.059511643 0.0822044 -0.068537615 0.014866989 -0.049865853
-0.068605006 0.009316748 0.04788149 -0.042957865 0.046206936 -0.00788451 0.03855583 -0.033005558
-0.07590624 -0.064490065 -0.023804117 0.0727485 -0.068231724 0.08303516 0.012987284 -0.06755682
-0.0067678113 0.04136447 0.051055934 -0.07468268 -0.029776622 0.017115673 0.044369407 0.008299005
-0.049990647 -0.012165129 -0.028809864 -0.016675556 -0.0027679242 -0.03210971 -0.06902686 0.011180108
0.08325196 -0.03520699 0.08673318 0.053730786 0.061677597 0.032575924 -0.012784512 -0.00650331
0.012331145 -0.05443293 0.030542148 0.04947692 0.007544437 -0.057448067 -0.029965898 -0.06346992
0.073248826 -0.054862462 0.059924424 0.033455834 0.0033178558 0.021353848 0.03292167 0.05654446
-0.07836943 0.08080066 0.05507854 -0.034277786 0.016736185 0.0136433495 -0.058149543 0.03499655
0.05945849 -0.036436953 -0.0326276 0.07316947 -0.007675459 -0.0641676 -0.052497197 0.07113587
0.07274818 -0.00787876 -0.011409112 0.03946602 -0.07220617 0.078321345 -0.06071766 -0.029819919
-0.0041253255 0.037802428 -0.056903783 -0.022574263 0.00127524 0.00019141783 0.046597954 0.055442717
0.04163366 -0.036093473 0.08301106 0.0011006428 -0.002693867 0.06925978 0.08535283 -0.014373353
-0.037111837 -0.007545488 0.026176153 0.07257483 0.058177643 0.055418704 -0.04385023 0.044042036
-0.015656749 -0.022046253 0.0256336 0.020090843 0.065303974 0.068847656 0.02400227 -0.07067854
-0.017578248 0.056076966 -0.033874378 -0.006761071 0.0557517 0.08582465 -0.015764635 0.015247945
0.010477867 0.044851206 0.03158148 0.060533404 -0.04650676 0.060504135 -0.017005684 -0.059216652
0.06184247 0.052289817 -0.017076083 0.032183286 -0.05637804 0.063404314 -0.007664436 -0.06381839
0.05471199 -0.03317472 0.029296681 -0.037613288 0.0076133916 0.05097038 0.031864323 -0.004348113
0.059737604 0.022090923 0.003162358 0.047847543 0.05510318 0.07979599 -0.06332387 0.062059164
0.0074157836 -0.016225725 -0.013083667 0.0142890075 0.0046961443 -0.08855346 0.027086943 -0.017352516
0.0019914194 0.0142826205 -0.0878189 0.04929745 -0.033642773 -0.05206885 -0.021126175 -0.04348206
0.06622548 -0.023601446 0.050209854 0.0439355 -0.07512827 0.019635202 0.047938105 -0.047817167
-0.06353588 0.008123954 -0.032786615 -0.015166894 0.034669157 -0.0026719132 -0.06790945 0.01503232
-0.00049366534 0.07501921 0.011597899 -9.3615745e-06 -0.031597584 0.0024829833 -0.005790902 -0.021331597
-0.07480284 0.015898013 -0.009757669 0.07716709 0.011140523 0.069078594 0.04266371 -0.04063452
0.0039809123 0.030018 0.062193498 0.05973313 0.0814751 -0.05144513 0.06800263 0.012114021
0.041168116 0.0696576 0.026169948 0.013003932 0.016798617 -0.027082285 -0.015156945 0.056549415
-0.052876107 0.024858909 0.012489058 -0.051981885 0.0001729995 -0.031226104 0.08146785 -0.0702833
00000000: af3c edbc 1edb 693d f5ee 823d 4f33 873d
00000010: a7f2 c03c dbb0 3aba 661f fa3c 2eea 923d
00000020: 7b78 15bd fd91 fbbc 286a bebc 2149 983d
00000030: 27dd 793d 169a 6b3d 4f83 8a3c 8d27 70bd
00000040: 173e 3abc 29aa b9bc 70f7 8c3d 73d3 013d
00000050: e2c4 53bd a178 36bd 8374 ff3c ce8a 70bd
00000060: d62b a33d 4f16 fb3c 5d0d 2dbd 7bc2 733d
00000070: c85a a83d 735d 8cbd ac94 733c 2340 4cbd
00000080: c880 8cbd 46a5 183c 621f 443d 96f4 2fbd
00000090: 7c43 3d3d 082e 01bc b8ec 1d3d d630 07bd
000000a0: bb74 9bbd 5e13 84bd da00 c3bc 2afd 943d
000000b0: 13bd 8bbd 570e aa3d 9ec8 543c 3b5b 8abd
000000c0: 84c4 ddbb ca6d 293d 0720 513d 3cf3 98bd
000000d0: 1aee f3bc 2b36 8c3c b2bc 353d 8df8 073c
000000e0: fec2 4cbd 4050 47bc aa02 ecbc 2d9b 88bc
000000f0: 1066 35bb 7985 03bd f45d 8dbd c62c 373c
00000100: 0180 aa3d 3435 10bd 2aa1 b13d d014 5c3d
00000110: a6a1 7c3d 556e 053d 2176 51bc b819 d5bb
00000120: 9208 4a3c 10f5 5ebd 8733 fa3c 50a8 4a3d
00000130: 5337 f73b aa4e 6bbd 0b7b f5bc 84fc 81bd
00000140: 7b03 963d 76b7 60bd 5073 753d fc08 093d
00000150: 6270 593b 44ee ae3c dfd8 063d 2a9b 673d
00000160: 2780 a0bd d17a a53d 099a 613d dd66 0cbd
00000170: 531a 893c 5b88 5f3c 372e 6ebd 8b58 0f3d
00000180: bf8a 733d ea3e 15bd 85a4 05bd e0d9 953d
00000190: 6b82 fbbb 4d6a 83bd 4d07 57bd afaf 913d
000001a0: fffc 943d ea15 01bc 49ed 3abc 1fa7 213d
000001b0: d4e0 93bd f166 a03d 15b3 78bd e748 f4bc
000001c0: bd2d 87bb b8d6 1a3d f113 69bd a9ed b8bc
000001d0: f425 a73a 55b7 4839 7fdd 3e3d e717 633d
000001e0: 0f88 2a3d c0d6 13bd b401 aa3d 7243 903a
000001f0: 978b 30bb 12d8 8d3d 77cd ae3d 367e 6bbc
00000200: 9502 18bd 2440 f7bb 5f6f d63c 1da2 943d
00000210: ae4b 6e3d b9fe 623d 4c9c 33bd 6c65 343d
00000220: 9542 80bc 589a b4bc 8efd d13c 8d95 a43c
00000230: 17be 853d 0000 8d3d 69a0 c43c e9bf 90bd
00000240: 4200 90bc f6b0 653d dcbf 0abd f98b ddbb
00000250: e55b 643d d6c4 af3d d624 81bc 84d2 793c
00000260: 5cab 2b3c e6b5 373d 955b 013d e0f1 773d
00000270: df7d 3ebd 2fd3 773d 814f 8bbc 298d 72bd
00000280: 884e 7d3d d92d 563d 24e3 8bbc 9fd2 033d
00000290: a9ec 66bd 1fda 813d f325 fbbb 37b3 82bd
000002a0: ae19 603d 37e2 07bd 98ff ef3c 6410 1abd
000002b0: c279 f93b 51c6 503d 2a84 023d 9e7a 8ebb
000002c0: 6baf 743d 06f8 b43c 903f 4f3b c9fb 433d
000002d0: dfb3 613d 146c a33d f2af 81bd c031 7e3d
000002e0: 1a00 f33b d0eb 84bc e05c 56bc 711c 6a3c
000002f0: 1de2 993b 845b b5bd 70e5 dd3c dd26 8ebc
00000300: 7982 023b a701 6a3c 65da b3bd 1fec 493d
00000310: 01cd 09bd 2546 55bd cd10 adbc 3f1a 32bd
00000320: 39a1 873d d257 c1bc d9a8 4d3d b6f5 333d
00000330: dadc 99bd 01da a03c bf5a 443d efdb 43bd
00000340: 191f 82bd 551a 053c 424b 06bd 907e 78bc
00000350: 3f01 0e3d 441b 2fbb 1c14 8bbd 1f4a 763c
00000360: 5269 01ba aca3 993d 1d05 3e3c a80f 1db7
00000370: 786c 01bd 8cb9 223b 9bc1 bdbb 9abf aebc
00000380: 3b32 99bd 8d3c 823c a1de 1fbc c709 9e3d
00000390: bd86 363c 1479 8d3d 24c0 2e3d 6270 26bd
000003a0: 5072 823b 4fe8 f53c 9cbe 7e3d baaa 743d
000003b0: 6bdc a63d 21b8 52bd f644 8b3d e379 463c
000003c0: e69f 283d a5a8 8e3d 5c62 d63c 720e 553c
000003d0: 419d 893c abdb ddbc d654 78bc 5ca0 673d
000003e0: 9e94 58bd e9a4 cb3c e89e 4c3c f5ea 54bd
000003f0: 3367 3539 e3cd ffbc 9ed8 a63d b1f0 8fbd

conv2.bias f4 [32]
0.0530679 0.06148213 -0.037487183 -0.068952166 0.07596698 0.07957119 -0.061091416 0.08315559
-0.051641636 0.056011647 0.0024500669 -0.02246689 0.05815059 -0.0052054226 -0.052100785 -0.057056393
0.051589545 0.023402978 -0.043811362 0.050144494 -0.055639148 0.08274263 0.025175754 0.060171314
-0.02978323 0.060962778 0.044465378 0.06850315 -0.04841741 -0.07602607 0.046480745 0.013923955
00000000: ba5d 593d b0d4 7b3d 298c 19bd cb36 8dbd
00000010: 9394 9b3d 38f6 a23d fe3a 7abd 7a4d aa3d
00000020: 2e86 53bd 786c 653d 4d91 203b 7c0c b8bc
00000030: 502f 6e3d 4092 aabb a267 55bd f7b3 69bd
00000040: 8f4f 533d 9ab7 bf3c 8b73 33bd 5064 4d3d
00000050: e0e5 63bd f874 a93d 623d ce3c 3276 763d
00000060: f6fb f3bc 1bb4 793d 5421 363d 614b 8c3d
00000070: 5651 46bd 8eb3 9bbd 9862 3e3d 4d21 643c

conv3.weight f4 [64, 32, 3, 3]
-3.1337317e-05 -0.01744386 0.035646964 0.020246888 0.034152996 0.007245079 0.03468269 0.048646126
-0.048699185 -0.0046793185 -0.052399043 0.03829947 -0.018202573 0.012660418 0.030346345 -0.034200754
0.035193566 -0.0341736 0.052409142 -0.02071197 -0.009067017 0.049008727 -0.027199693 -0.01878844
0.027958266 -0.029806063 0.046024155 0.0324534 0.020337602 0.0145053025 -0.036040686 -0.00058967795
0.024641959 -0.011954526 -0.015782613 0.0059367414 -0.038452744 0.02831027 -0.043787897 -0.036323894
0.010562031 -0.0032698985 -0.0324605 0.028318426 -0.04681606 0.037632246 0.05101082 0.04427185
0.05647752 0.0003344319 0.031441446 -0.05192321 0.029778456 -0.039710317 -0.030919181 -0.053509016
0.0003443187 0.05407445 0.0013267829 0.0060138064 -0.009435219 0.007996429 0.055750545 0.0059980312
0.025391798 0.013225296 -0.010645495 -0.032635044 0.009710205 0.013533641 -0.018716315 -0.034231365
-0.0048842495 0.012706446 -0.018178754 -0.037188437 -0.033815227 -0.04744648 0.04516132 -0.0020319193
-0.0116531635 -0.023979776 0.062940754 -0.039069965 0.02318618 0.007441345 -0.047049 0.0467789
0.008201892 -0.015812777 0.008666685 -0.00910848 -0.045001198 -0.0051622745 0.0011658965 -0.009659552
-0.006167986 0.024824455 -0.0058190348 -0.0038174938 0.039263107 -0.004467355 0.05862169 -0.012864982
0.034420975 0.028945824 0.051810116 0.00833645 0.052488234 -0.0031961799 0.0036913676 -0.052272648
0.032877594 0.03043316 0.014885051 0.021850722 -0.0528656 0.05081884 0.024395663 -0.024210814
0.055187885 0.033792626 0.029916072 0.031988975 -0.04675815 0.03633246 -0.03509847 0.00046669683
0.029146101 -0.045030132 0.053842515 0.0014014341 0.026010903 -0.05690327 0.002406532 0.013092705
0.05405097 -0.014156962 0.044737283 0.041763317 -0.034921754 0.064819366 0.0032938493 0.024108006
0.008835414 0.045081146 0.00050270953 -0.020036522 0.008325051 0.033672903 0.0007870009 -0.011532956
0.046892043 0.03555922 -0.03794594 0.028550217 0.029083544 0.0022273755 0.05204856 0.030977745
0.057368398 -0.0053471816 -0.004870514 -0.017714525 0.01091197 0.018772097 -0.010703036 0.02561356
0.0584198 0.019712951 0.004638957 -0.049821086 -0.042257223 -0.03622289 -0.012240712 -0.009938073
0.04073372 0.044330277 0.053574383 -0.0014716001 -0.029714184 -0.02740285 -0.037440307 0.022068676
0.022072505 0.038046386 0.009746075 0.00452603 0.04694313 0.025424961 0.01599324 -0.045368593
-0.023919778 0.031867657 -0.015961971 0.048758276 0.004817231 0.015486276 0.05172005 -0.035393298
0.03411894 0.025353089 -0.025989465 0.053973682 0.0075673186 -0.045443587 0.033474486 -0.01799396
-0.012048244 0.050641965 0.04380793 -0.034302343 0.04031603 0.0088710785 -0.028917229 -0.009808329
-0.009706321 0.045574956 0.02174353 0.050269745 -0.049204133 0.056562316 0.061208535 0.051629674
0.031438936 0.022465127 0.0472497 0.03134584 0.034406003 0.006263648 -0.00816683 0.004343408
0.040096443 -0.016975446 -0.046057273 0.03718524 0.05622081 0.06435787 0.027348654 -0.031884275
0.055638213 0.034505814 -0.032834295 0.054512795 -0.039574113 -0.022614848 0.02689308 -0.015100944
0.028474642 -0.045943037 0.05381397 0.05994992 -0.016407324 0.05129125 -0.018614797 0.052243486
00000000: 3070 03b8 6de6 8ebc 8d02 123d cddc a53c
00000010: 03e4 0b3d 2168 ed3b 700f 0e3d 2941 473d
00000020: cc78 47bd f854 99bb 61a0 56bd e8df 1c3d
00000030: 901d 95bc a46d 4f3c e698 f83c 1716 0cbd
00000040: 2127 103d 9ef9 0bbd f8aa 563d 26ac a9bc
00000050: d38d 14bc 60bd 483d e4d1 debc 37ea 99bc
00000060: bc08 e53c d82b f4bc d383 3c3d dbed 043d
00000070: 0b9b a63c a6a7 6d3c 669f 13bd 9e94 1aba
00000080: efdd c93c ebdc 43bc 8a4a 81bc ff88 c23b
00000090: a080 1dbd f0ea e73c f05a 33bd 5dc8 14bd
000000a0: 5e0c 2d3c cb4b 56bb 4df5 04bd 0bfc e73c
000000b0: 32c2 3fbd 4524 1a3d b9f0 503d 6656 353d
000000c0: f954 673d b156 af39 bfc8 003d 6fad 54bd
000000d0: f3f1 f33c 49a7 22bd 394a fdbc 452c 5bbd
000000e0: ac85 b439 2c7d 5d3d 72e7 ad3a 770f c53b
000000f0: 2d96 1abc 7403 033c af5a 643d 228b c43b
00000100: 7602 d03c e9ae 583c 716a 2ebc 53ac 05bd
00000110: 8d17 1f3c 34bc 5d3c f552 99bc 3036 0cbd
00000120: 0e0c a0bb b32e 503c 9ceb 94bc e752 18bd
00000130: d681 0abd 3d57 42bd 14fb 383d f329 05bb
00000140: e9ec 3ebc 3c71 c4bc 15e7 803d d407 20bd
00000150: f2f0 bd3c 87d6 f33b 74b6 40bd 3b9b 3f3d
00000160: 3a61 063c cc89 81bc b6fe 0d3c bc3b 15bc
00000170: 2d53 38bd 4c28 a9bb ffd0 983a 1943 1ebc
00000180: d11c cabb a85c cb3c 9aad bebb eb2e 7abb
00000190: 5ad2 203d e462 92bb 4c1d 703d a5c7 52bc
000001a0: 02fd 0c3d cb1f ed3c d836 543d 9b95 083c
000001b0: e7fd 563d 0077 51bb dfea 713b d81b 56bd
000001c0: a8aa 063d f64e f93c 6ee0 733c 4900 b33c
000001d0: 9989 58bd 6a27 503d 6ad9 c73c c255 c6bc
000001e0: b10c 623d 236a 0a3d 8d12 f53c df06 033d
000001f0: 7985 3fbd 58d1 143d 6ac3 0fbd fdae f439
00000200: cec3 ee3c 8471 38bd f889 5c3d 53b0 b73a
00000210: d114 d53c 6713 69bd e8b6 1d3b c982 563c
00000220: 8d64 5d3d 9af2 67bc 713e 373d 0310 2b3d
00000230: 1d0a 0fbd 04c0 843d 9fdd 573b 277e c53c
00000240: 6ac2 103c 02a7 383d 44c8 033a a223 a4bc
00000250: cb65 083c 99ec 093d bd4e 4e3a b9f4 3cbc
00000260: df11 403d 8ba6 113d 346d 1bbd 25e2 e93c
00000270: 9d40 ee3c 29f9 113b df30 553d 0ac5 fd3c
00000280: 20fb 6a3d 6937 afbb d598 9fbb 0d1e 91bc
00000290: 1fc8 323c f1c7 993c c95b 2fbc 87d3 d13c
000002a0: 9a49 6f3d 0e7d a13c 6402 983b 3211 4cbd
000002b0: e915 2dbd 745e 14bd 448d 48bc 4dd3 22bc
000002c0: 67d8 263d aa93 353d d070 5b3d b5e2 c0ba
000002d0: 296b f3bc f17b e0bc 025b 19bd 5ec9 b43c
000002e0: 66d1 b43c 87d6 1b3d 00ae 1f3c 174f 943b
000002f0: 7147 403d 0248 d03c 4104 833c 6bd4 39bd
00000300: 69f3 c3bc a987 023d aec2 82bc c2b6 473d
00000310: ddd9 9d3b 26ba 7d3c 67d8 533d 90f8 10bd
00000320: 4dc0 0b3d 48b1 cf3c dce7 d4bc 8213 5d3d
00000330: 45f7 f73b 0e23 3abd 8b1c 093d 1268 93bc
00000340: ff65 45bc f36d 4f3d f26f 333d 9d80 0cbd
00000350: 6c22 253d 0058 113c d3e3 ecbc 1db3 20bc
00000360: 4307 1fbc ceac 3a3d 7d1f b23c a6e7 4d3d
00000370: 468a 49bd e3ad 673d cdb5 7a3d a379 533d
00000380: 1dc6 003d c908 b83c e788 413d 7f64 003d
00000390: 4fed 0c3d 4a3f cd3b 2bce 05bc 2653 8e3b
000003a0: 2b3c 243d 1710 8bbc 8da6 3cbd 8d4f 183d
000003b0: cb47 663d 0fce 833d 490a e03c 1699 02bd
000003c0: e5e4 633d f855 0d3d 417d 06bd cf48 5f3d
000003d0: 7718 22bd c642 b9bc e04e dc3c f369 77bc
000003e0: a743 e93c c42e 3cbd 0a6c 5c3d 0c8e 753d
000003f0: a768 86bc c616 523d 0f7e 98bc 44fd 553d

conv3.bias f4 [64]
0.01584527 -0.02157836 0.009792371 -0.012602496 0.03594484 -0.003891745 -0.006364804 -0.008917662
0.010521236 -0.011064105 0.037891723 0.060518846 -0.05251878 0.036317367 0.04510658 0.046136472
-0.018261524 0.027073175 0.034460045 0.05392308 0.046037685 0.039815955 0.051946495 -0.03548722
0.006074661 0.032255866 -0.04582859 0.039136287 0.009976971 -0.0171531 -0.020315913 0.054750916
0.014697027 -0.049781963 0.054685082 0.005267777 0.011009321 0.04375983 -0.04780254 -0.035993584
-0.0029511603 0.049128987 0.05987209 0.018525522 0.053384855 0.029336918 0.044991713 -0.006958959
-0.018316489 0.04801813 -0.051580403 0.04151243 -0.011002985 -0.0022251364 -0.018065458 0.016885987
-0.029310517 0.043670963 -0.0019993973 0.03533777 -0.026062638 0.012626862 0.039967693 -0.013587265
00000000: f1cd 813c 1ac5 b0bc 2e70 203c b37a 4ebc
00000010: e63a 133d a50c 7fbb d98f d0bb 631b 12bc
00000020: 4361 2c3c 3846 35bc 5a34 1b3d 9ce2 773d
00000030: ef1d 57bd 85c1 143d adc1 383d 99f9 3c3d
00000040: 3199 95bc 90c8 dd3c fa25 0d3d 73de 5c3d
00000050: 0392 3c3d 0e16 233d d9c5 543d 0c5b 11bd
00000060: f30d c73b ba1e 043d c2b6 3bbd 5f4d 203d
00000070: 7376 233c a884 8cbc 8f6d a6bc 7f42 603d
00000080: cdcb 703c 2ce8 4bbd 77fd 5f3d 519d ac3b
00000090: 7060 343c 823d 333d 99cc 43bd 026e 13bd
000000a0: 4168 41bb 7a3b 493d 703c 753d d6c2 973c
000000b0: 14aa 5a3d fa53 f03c 3b49 383d fb07 e4bb
000000c0: 760c 96bc a9ae 443d f945 53bd f008 2a3d
000000d0: dd45 34bc 98d3 11bb 03fe 93bc 7b54 8a3c
000000e0: 9c1c f0bc 53e0 323d 5208 03bb 56be 103d
000000f0: 5081 d5bc e6e0 4e3c 2ab5 233d 1f9d 5ebc

conv4.weight f4 [128, 64, 3, 3]
0.03520838 0.011663884 0.03673421 0.008129936 -0.025464006 -0.021915082 -0.004966183 -0.014887358
0.020926801 -0.01114108 0.048908368 -0.0061057946 -0.012111773 0.004841286 0.010054663 -0.007878525
-0.008640294 0.0014154466 0.03513736 0.049290497 -0.01339554 -0.018966282 0.0020366046 0.03113854
0.0017317897 0.0011108386 -0.03525255 0.028889565 -0.02213765 -0.016689135 0.022239406 -0.018512081
-0.03354598 0.037590627 -0.008713149 -0.026969371 0.0054738326 -0.015296501 -0.011321287 -0.04074266
0.0052990178 -0.014449964 -0.027127376 0.014486418 -0.014683133 -0.026284471 0.010450381 -0.030519348
0.019031068 0.039105628 0.029297903 -0.016186278 -0.027208807 -0.0018156767 0.037663225 -0.018685535
-0.0063100182 -0.017108941 0.033839926 0.0064770207 -0.010251427 -0.01718767 0.015005553 -0.04458521
0.00080538023 0.03145522 -0.0032981029 0.024974851 0.004953351 0.020962978 0.02310221 0.019769292
-0.022210704 0.016563572 -0.03739718 0.034132745 -0.01398092 -0.013381749 -0.033000767 0.03540083
0.037594836 0.004331823 0.0009894414 0.0034482982 0.017834136 0.021563279 -0.015961222 0.0031996674
-0.011739886 0.024922302 0.009957989 -0.02462444 -0.022767128 0.013992383 0.012240537 -0.012753642
-0.010093803 -0.0152187385 -0.026226567 0.0074553913 0.030722838 -0.016889922 0.007963878 -0.02654404
0.014753732 0.004445348 0.007068113 -0.0128898015 0.039059356 -0.028441912 0.009443432 -0.038671628
0.033348724 0.012761533 -0.0027957312 0.04153023 -0.023390552 0.043528695 0.013085899 0.019325031
0.026922265 -0.009656094 0.005340188 -0.022977486 -0.019344153 0.021560214 0.015177518 -0.041178524
0.01733438 0.022589788 -0.000995408 -0.012105481 0.0016911236 -0.0028309035 -0.01840537 0.014704336
0.029095298 0.03554335 -0.031755917 -0.01246809 0.040583864 0.01522519 -0.027758917 -0.0027171269
0.030165702 -0.008432554 -0.035433967 0.02493161 -0.022222083 -0.02230742 0.019478224 -0.0033287718
-0.0120000215 0.011660382 -0.021304803 -0.022574948 -0.0023026557 0.034114607 0.026893364 0.008007966
-0.007423213 -0.011910712 -0.0057056556 -0.00067701994 0.009500296 -0.03852863 0.033722397 -0.00035667224
0.021832496 0.034556713 0.033428725 0.026450444 0.009699736 -0.034269027 0.048469786 0.016841274
0.021654865 0.014175731 0.02543956 -0.031118419 -0.03415198 -0.0008995417 -0.039735407 -0.0053986204
-0.038838122 -0.017321436 -0.0383747 -0.015429758 0.023381721 -0.020169882 0.0048072925 -0.0020065862
-0.012727988 -0.038248796 -0.03332776 -0.03283903 0.015992617 -0.00065371336 0.04677319 0.012017705
-0.027504222 0.0309324 -0.017995482 -0.03353066 -0.019894693 0.032722678 0.0100791855 0.03268687
-0.039973218 0.013532276 -0.03530111 0.020554442 0.030119728 -0.015415609 0.024977503 0.017548105
0.022244241 -0.016367272 0.017811041 -0.014707707 0.014537324 -0.017695034 0.02822321 0.013271252
-0.030165903 0.04332402 -0.0003022226 0.008048858 -0.03544216 0.024643844 0.029503038 -0.026795741
-0.024700973 -0.0075401515 -0.02032685 -0.013180703 0.008508762 0.03725777 -0.007500331 -0.03652569
0.012799025 0.026776036 -0.037946325 0.023843644 0.036583472 -0.003860137 -0.015404087 -0.009153772
-0.038552072 -0.014624858 -0.020256856 -0.026317125 -0.038628828 -0.03347467 0.008775264 -0.0015524229
00000000: aa36 103d e019 3f3c 9c76 163d 6c33 053c
00000010: e499 d0bc 4287 b3bc 5dbb a2bb 1bea 73bc
00000020: af6e ab3c 1489 36bc 2454 483d 1e13 c8bb
00000030: 7570 46bc a7a3 9e3b 50bc 243c ee14 01bc
00000040: 0590 0dbc 8286 b93a 31ec 0f3d d5e4 493d
00000050: f878 5bbc 2d5f 9bbc 8e78 053b 4016 ff3c
00000060: 38fd e23a 8f99 913a fa64 10bd cfa9 ec3c
00000070: 045a b5bc a7b7 88bc 6a2f b63c a6a6 97bc
00000080: 8267 09bd a1f8 193d 99c1 0ebc dfee dcbc
00000090: d65d b33b 2d9e 7abc eb7c 39bc c7e1 26bd
000000a0: 62a3 ad3b 8bbf 6cbc 3b3a debc 7158 6d3c
000000b0: 8691 70bc 8852 d7bc 1338 2b3c b603 fabc
000000c0: 0be7 9b3c 392d 203d 2802 f03c 1699 84bc
000000d0: 01e5 debc 00fc edba c144 1a3d 6812 99bc
000000e0: 45c4 cebb 0d28 8cbc bc9b 0a3d 303d d43b
000000f0: 9af5 27bc 28cd 8cbc dad9 753c fb9e 36bd
00000100: 2720 533a 30d7 003d fc24 58bb 0f98 cc3c
00000110: b84f a23b 8dba ab3c d940 bd3c 36f3 a13c
00000120: 39f3 b5bc 54b0 873c c92d 19bd c7ce 0b3d
00000130: 3b10 65bc 203f 5bbc d02b 07bd 7600 113d
00000140: 0bfd 193d f7f1 8d3b 25b0 813a d8fc 613b
00000150: e518 923c 79a5 b03c 1cc1 82bc 83b1 513b
00000160: a758 40bc db29 cc3c d526 233c 32b9 c9bc
00000170: 2182 babc 4f40 653c 898c 483c a7f4 50bc
00000180: 7a60 25bc 0458 79bc 19d9 d6bc 5b4c f43b
00000190: 76ae fb3c bc5c 8abc ed7a 023c e372 d9bc
000001a0: a3b9 713c 48aa 913b a19b e73b bf2f 53bc
000001b0: b4fc 1f3d 03ff e8bc a0b8 1a3c 2466 1ebd
000001c0: ac98 083d c015 513c 9638 37bb 9a1b 2a3d
000001d0: 8b9d bfbc 254b 323d 3d66 563c 874f 9e3c
000001e0: 158c dc3c 9834 1ebc befc ae3b 483b bcbc
000001f0: a177 9ebc 0c9f b03c 20ab 783c d0aa 28bd
00000200: d400 8e3c 380e b93c 5a78 82ba 1156 46bc
00000210: b1a8 dd3a ae86 39bb dcc6 96bc 75ea 703c
00000220: 4359 ee3c e795 113d 7e12 02bd f646 4cbc
00000230: 443b 263d 1373 793c ab66 e3bc d311 32bb
00000240: 101e f73c b228 0abc 3523 11bd 603d cc3c
00000250: 160b b6bc 0dbe b6bc cc90 9f3c 8627 5abb
00000260: bd9b 44bc 300b 3f3c 6987 aebc 19ef b8bc
00000270: 27e8 16bb c2bb 0b3d 794f dc3c d833 033c
00000280: 6d3e f3bb 2625 43bc 82f6 babb 0a7a 31ba
00000290: 21a7 1b3c 32d0 1dbd 7f20 0a3d bdff bab9
000002a0: 10da b23c 578b 0d3d 8fec 083d 9aae d83c
000002b0: a4eb 1e3c ae5d 0cbd 4188 463d b6f6 893c
000002c0: 8b65 b13c 5341 683c a066 d03c 0eec febc
000002d0: f2e2 0bbd 39cf 6bba 98c1 22bd e9e6 b0bb
000002e0: b914 1fbd afe5 8dbc ca2e 1dbd 18cd 7cbc
000002f0: 068b bf3c 4f3b a5bc 7e86 9d3b ee80 03bb
00000300: 0d89 50bc c5aa 1cbd b082 08bd 3882 06bd
00000310: f302 833c f65d 2bba 3f95 3f3d e8e5 443c
00000320: 8950 e1bc f265 fd3c 436b 93bc 7257 09bd
00000330: 32fa a2bc 3708 063d 2b23 253c abe2 053d
00000340: f5ba 23bd 7bb6 5d3c e697 10bd ca61 a83c
00000350: a6bd f63c c091 7cbc 9f9d cc3c 0bc1 8f3c
00000360: 8e39 b63c a814 86bc 76e8 913c 98f8 70bc
00000370: f52d 6e3c 2df5 90bc 5c34 e73c aa6f 593c
00000380: 7c1e f7bc 8774 313d a173 9eb9 5bdf 033c
00000390: cc2b 11bd e3e1 c93c 5bb0 f13c be82 dbbc
000003a0: b259 cabc 6013 f7bb 7e84 a6bc e0f3 57bc
000003b0: 5668 0b3c 9a9b 183d 56c5 f5bb f69b 15bd
000003c0: 00b3 513c 6b59 db3c 9b6d 1bbd bf53 c33c
000003d0: 8dd8 153d 5afa 7cbb 6c61 7cbc b4f9 15bc
000003e0: c7e8 1dbd 1a9d 6fbc b5f1 a5bc 0397 d7bc
000003f0: 4339 1ebd bc1c 09bd 20c6 0f3c ab7a cbba

conv4.bias f4 [128]
0.028368762 0.00017605226 0.020209204 -0.013348278 -0.030590981 -0.017760431 -0.04288851 -0.026529137
0.015935898 -0.032530036 -0.010309118 -0.038923703 0.036354735 -0.009096702 0.03520635 -0.0014209534
0.018280936 0.0007424498 -0.027503077 -0.024148397 -0.010588806 0.019837733 -0.033184268 0.004375448
0.02374623 0.0027990313 0.012657632 0.03456658 0.010745978 -0.02901899 0.035822038 -0.014180906
-0.041966163 -0.0009512222 -0.025601162 -0.03767272 -0.0077385083 -0.0023947838 0.041540198 -0.02703587
0.021693036 -0.007992998 -0.013984039 -0.030863795 -0.014120917 -0.003490822 0.015749684 -0.031580597
-0.004797427 0.005000538 0.0036559033 -0.01653004 0.032521993 0.006262767 -0.021450764 -0.020971863
0.01071599 0.026214108 -0.018070433 0.01212088 -0.03497085 0.021176128 -0.038155615 0.0066238074
0.03573163 -0.01921596 -0.022597805 -0.036587175 0.001779166 0.03129883 0.033477027 -0.03570772
0.0031064604 0.0047362056 0.022855941 0.011672021 0.021286719 0.0077871033 -0.03844382 -0.006718061
0.0013257556 0.027592333 0.03507551 0.024293201 0.042963684 0.019649023 -0.0031510638 -0.0052136714
-0.019867603 0.038720634 0.01436471 0.004211941 -0.027278371 -0.009786797 0.03126155 -0.039530408
0.037074644 -0.030554136 -0.019820798 0.003266711 -0.016989764 0.026031656 0.023688884 -0.005896215
0.010673394 -0.02083672 0.01782254 -0.016084855 -0.029073255 0.03360952 0.0020138815 -0.010446105
0.03961796 -0.039122775 0.016987408 0.008167226 0.0075334194 0.03297514 0.0074044704 0.031284142
0.017138718 0.037982237 0.01797874 0.026305199 -0.025158804 -0.0077075083 0.033596892 -0.011364852
00000000: 9b65 e83c ab9a 3839 c68d a53c bcb2 5abc
00000010: f099 fabc 537e 91bc ddab 2fbd a253 d9bc
00000020: 008c 823c 373e 05bd 93e7 28bc 766e 1fbd
00000030: b4e8 143d 550a 15bc 8934 103d 493f baba
00000040: e7c1 953c f6a0 423a 224e e1bc dcd2 c5bc
00000050: ac7c 2dbc be82 a23c 3aec 07bd eb5f 8f3b
00000060: 7487 c23c f46f 373b f561 4f3c b095 0d3d
00000070: e60f 303c 3cb9 edbc 21ba 123d 0857 68bc
00000080: b6e4 2bbd 715b 79ba 87b9 d1bc b64e 1abd
00000090: 5093 fdbb cef1 1cbb 0e26 2a3d 547a ddbc
000000a0: 98b5 b13c 10f5 02bc 501d 65bc 12d6 fcbc
000000b0: 6b5b 67bc 46c6 64bb 7b05 813c a85a 01bd
000000c0: bc33 9dbb 8edb a33b e197 6f3b 026a 87bc
000000d0: c835 053d e637 cd3b 83b9 afbc 2fcd abbc
000000e0: 1f92 2f3c f8be d63c 7208 94bc a896 463c
000000f0: 983d 0fbd 8f79 ad3c 1049 1cbd 860c d93b
00000100: 545b 123d ca6a 9dbc 081f b9bc 6fdc 15bd
00000110: e832 e93a 3433 003d 351f 093d 4242 12bd
00000120: c295 4b3b 2c32 9b3b 623c bb3c 013c 3f3c
00000130: 7c61 ae3c f52a ff3b 4477 1dbd 2e23 dcbb
00000140: fac4 ad3a 5109 e23c 57ab 0f3d 8902 c73c
00000150: b0fa 2f3d fdf6 a03c 1482 4ebb 72d7 aabb
00000160: 62c1 a2bc 8799 1e3d f659 6b3c 5204 8a3b
00000170: e476 dfbc cd58 20bc 1c0c 003d a3ea 21bd
00000180: 95db 173d ab4c fabc 3a5f a2bc 5116 563b
00000190: 1e2e 8bbc 5740 d53c 310f c23c 0935 c1bb
000001a0: 76df 2e3c c5b1 aabc 9300 923c 63c4 83bc
000001b0: 092b eebc 23aa 093d 53fb 033b 2426 2bbc
000001c0: 7146 223d 343f 20bd 2d29 8b3c d4cf 053c
000001d0: e7da f63b f110 073d 33a1 f23b cd23 003d
000001e0: 7f66 8c3c 4393 1b3d 2748 933c 007e d73c
000001f0: d619 cebc 448f fcbb e59c 093d a533 3abc

fc.weight f4 [1, 128]
0.06527984 -0.044577498 -0.020981308 0.07619806 0.078572 0.031206397 -0.06088799 0.09051002
-0.018455861 0.07566404 0.06801235 -0.07055551 -0.09072905 0.029929282 0.08599448 -0.048286393
0.021621253 -0.031215165 0.018053018 -0.039494794 -0.023246245 0.042086676 -0.07133813 -0.07148633
0.06100344 0.009496507 0.09034694 0.05061469 0.02837932 0.012272991 0.064242 -0.02595698
0.05651853 0.0098498985 -0.063822955 -0.060533363 0.06540801 0.053385887 -0.053546757 0.096050285
0.038361955 -0.0114231985 0.02983297 0.030091187 -0.043261603 -0.08929293 -0.021130547 0.018282974
-0.06818706 -0.09126294 0.07975363 -0.051017888 0.038615186 0.058403943 -0.06447917 0.09129276
0.030784672 -0.037507627 -0.05794709 -0.077953465 0.004477625 0.0658917 -0.06247679 0.07244769
-0.028426653 -0.030281296 -0.068325974 0.070599504 -0.048907686 -0.06343115 -0.06928197 0.018002616
-0.08140418 0.058705896 0.056942295 0.058755703 0.085964456 0.028624417 -0.04777867 0.011932843
-0.026864223 -0.07835235 -0.08246056 0.09304736 -0.06999871 -0.0778369 0.034577403 0.09094116
-0.07894276 -0.07877485 0.010801913 -0.021038983 0.08393661 0.02265685 -0.062459253 0.01990972
0.03161775 0.06148973 0.059053022 0.021535961 -0.07664222 0.030818406 -0.0649771 0.016606955
0.05699332 -0.044120867 -0.013988382 0.031679932 -0.00955767 0.069055736 -0.007557056 -0.04135616
0.032580543 0.045078143 0.090213895 0.042268023 -0.09036817 -0.009624238 -0.07651307 -0.006521257
-0.09009316 -0.026053658 -0.05878816 0.06548938 -0.021602012 0.016507857 0.03832445 -0.03856522
00000000: 70b1 853d e596 36bd fee0 abbc ba0d 9c3d
00000010: 5bea a03d 8fa4 ff3c af65 79bd 515d b93d
00000020: bf30 97bc c0f5 9a3d 0f4a 8b3d 687f 90bd
00000030: 27d0 b9bd 412e f53c e01d b03d f4c7 45bd
00000040: 0e1f b13c f2b6 ffbc ece3 933c 4bc5 21bd
00000050: e96e bebc 1463 2c3d ba19 92bd 6d67 92bd
00000060: bede 793d 3d97 1b3c d107 b93d 5951 4f3d
00000070: bf7b e83c a814 493c 4f91 833d bca3 d4bc
00000080: f97f 673d 7861 213c 9cb5 82bd d5f1 77bd
00000090: a2f4 853d 29ab 5a3d d853 5bbd 03b6 c43d
000000a0: 6d21 1d3d 5e28 3bbc 4664 f43c cb81 f63c
000000b0: 1433 31bd 36df b6bd f819 adbc 2dc6 953c
000000c0: a8a5 8bbd 10e8 babd df55 a33d 22f8 50bd
000000d0: f52a 1e3d f938 6f3d a80d 84bd b3f7 ba3d
000000e0: 2330 fc3c 99a1 19bd ee59 6dbd 11a6 9fbd
000000f0: 0ab9 923b 3af2 863d aae7 7fbd 745f 943d
00000100: 03df e8bc 7b10 f8bc 7dee 8bbd 7996 903d
00000110: 6d53 48bd 31e8 81bd b5e3 8dbd 397a 933c
00000120: 3cb7 a6bd 9875 703d 533c 693d d2a9 703d
00000130: 220e b03d c17d ea3c 91b3 43bd f981 433c
00000140: 5c12 dcbc 3277 a0bd 15e1 a8bd 9d8f be3d
00000150: 7c5b 8fbd f468 9fbd 09a1 0d3d 5c3f ba3d
00000160: beac a1bd b554 a1bd 82fa 303c f259 acbc
00000170: f5e6 ab3d dc9a b93c 46d5 7fbd b619 a33c
00000180: 9d81 013d a8dc 7b3d 95e1 713d 2f6c b03c
00000190: 99f6 9cbd e276 fc3c b712 85bd 4f0b 883c
000001a0: d471 693d 15b8 34bd 872f 65bc d1c2 013d
000001b0: c697 1cbc 186d 8d3d 2ea1 f7bb 1465 29bd
000001c0: 2d73 053d dca3 383d 10c2 b83d 3c21 2d3d
000001d0: f212 b9bd fbae 1dbc e2b2 9cbd 45b0 d5bb
000001e0: c382 b8bd 7b6e d5bc dbcb 70bd 4c1f 863d
000001f0: b4f6 b0bc 7c3b 873c 19fa 1c3d 90f6 1dbd
