CNN/Trained_CNNs/model_precip_only_21032023.pt (torch, 391879 bytes, 9 tensors)

conv1.weight f4 [16, 1, 3, 3]
-0.34892 -0.30875188 -0.18894415 -0.5756772 -0.71166605 -0.24714386 -0.48684707 -0.585499
-0.077761225 0.4050004 0.549059 0.55049735 0.022353852 0.5772215 0.5710431 0.008606114
0.30532646 0.4937607 0.5136356 0.18509915 0.19075657 0.17557457 0.5551182 0.1379847
0.45048097 0.21737249 0.22377543 -0.10636044 -0.6555137 -0.38199857 -0.16076389 -0.59150416
-0.5039132 -0.48475713 -0.09295199 -0.28725705 0.4598982 0.10614266 -0.053769447 0.48148423
0.47265166 0.51003057 0.41759214 0.40131393 0.38613093 -0.6930399 -0.633896 -0.2140297
-0.5314118 -0.5347114 -0.77679545 -0.27001986 -0.5685036 -0.49620217 -0.5536304 -0.31690118
-0.23639718 -0.23783703 -0.76175624 -0.6380634 -0.6941404 -0.40338895 -0.4085185 0.07070107
0.11945075 0.30811837 0.36030972 0.62251645 0.4806857 0.6231277 0.13618581 0.67441136
-0.25972563 -0.36347097 -0.523358 -0.23070382 -0.5631552 -0.590259 -0.59240365 -0.44827238
-0.42897737 -0.28143054 -0.3341104 -0.40495706 -0.47685945 -0.47059405 -0.31870696 -0.67552245
-0.34219068 -0.7288817 0.2907303 0.5549367 0.22632597 0.29232565 0.52153045 0.422516
0.63528913 0.22583325 0.14547019 0.42041388 0.53769696 0.41631794 0.16258831 0.17564033
0.5161457 0.44417736 0.584157 0.2209208 0.67638826 0.41545594 0.5126976 0.22232814
0.38691258 0.34536862 0.17126727 0.63849854 0.54048526 0.22055137 0.5206459 0.34994534
0.10505434 0.49966496 0.37591112 0.6356312 0.41215748 0.24185084 0.3222651 0.5469676
0.19055732 0.4603581 0.1825132 0.17659692 0.371579 0.6946708 0.27854893 0.36170354
0.41270363 0.31952283 0.50996447 0.26155204 0.6825072 0.23032798 0.2332614 0.23928364
00000000: a4a5 b2be ba14 9ebe 937a 41be 955f 13bf
00000010: bf2f 36bf 4813 7dbe 0544 f9be 43e3 15bf
00000020: 4741 9fbd 365c cf3e 218f 0c3f 65ed 0c3f
00000030: 6d1f b73c cac4 133f e12f 123f a900 0d3c
00000040: c053 9c3e 34ce fc3e 9f7d 033f a28a 3d3e
00000050: b155 433e d2c9 333e 3a1c 0e3f dc4b 0d3e
00000060: 71a5 e63e e596 5e3e 6325 653e 81d3 d9bd
00000070: bfcf 27bf 5195 c3be 4a9f 24be d16c 17bf
00000080: 7500 01bf 1632 f8be 9d5d bebd 5b13 93be
00000090: c777 eb3e 5361 d93d 5a3d 5cbd 1a85 f63e
000000a0: 66ff f13e 5d91 023f a3ce d53e 0579 cd3e
000000b0: f4b2 c53e 106b 31bf 0247 22bf 9a2a 5bbe
000000c0: 9b0a 08bf d9e2 08bf 11dc 46bf 0b40 8abe
000000d0: 7489 11bf 360e febe b9ba 0dbf df40 a2be
000000e0: 1a12 72be 8d8b 73be 7502 43bf 1f58 23bf
000000f0: 2fb3 31bf ff88 cebe 5629 d1be b9cb 903d
00000100: 98a2 f43d b1c1 9d3e 847a b83e 3d5d 1f3f
00000110: 701c f63e 4c85 1f3f 4b74 0b3e 39a6 2c3f
00000120: c2fa 84be de18 babe cafa 05bf 9f3d 6cbe
00000130: f02a 10bf 371b 17bf c4a7 17bf f583 e5be
00000140: eca2 dbbe aa17 90be 8510 abbe 8856 cfbe
00000150: ec26 f4be b4f1 f0be 8f2d a3be 0aef 2cbf
00000160: 9e33 afbe fe97 3abf 9ada 943e 5510 0e3f
00000170: ffc1 673e b5ab 953e 0583 053f 0454 d83e
00000180: 4fa2 223f d540 673e 23f6 143e 7d40 d73e
00000190: 82a6 093f a027 d53e 8d7d 263e 0fdb 333e
000001a0: 2022 043f 376b e33e 508b 153f 1039 623e
000001b0: c827 2d3f a4b6 d43e 2640 033f fda9 633e
000001c0: 6819 c63e 28d4 b03e b060 2f3e a474 233f
000001d0: 3e5d 0a3f 38d8 613e 0d49 053f 092c b33e
000001e0: bb26 d73d 16d4 ff3e 6c77 c03e bab8 223f
000001f0: 4e06 d33e bfa7 773e eeff a43e 1206 0c3f
00000200: 7521 433e 0fb4 eb3e bee4 3a3e d3d5 343e
00000210: 9a3f be3e f2d5 313f f79d 8e3e 3531 b93e
00000220: e44d d33e 7f98 a33e 088d 023f 26ea 853e
00000230: cbb8 2e3f 19db 6b3e 14dc 6e3e c506 753e

conv1.bias f4 [16]
-0.7529967 -0.19879042 -0.14415339 -0.7379618 -0.23062716 0.11412786 0.037665233 -0.27747262
0.233443 0.28011054 -0.5145855 -0.3873798 -0.2888795 -0.42659476 -0.5635451 -0.8241897
00000000: 64c4 40bf b78f 4bbe f29c 13be 11eb 3cbf
00000010: 8729 6cbe debb e93d dc46 1a3d e410 8ebe
00000020: af0b 6f3e a66a 8f3e e0bb 03bf a556 c6be
00000030: 04e8 93be a16a dabe 7e44 10bf 19fe 52bf

conv2.weight f4 [32, 16, 3, 3]
-0.4576597 -0.49433166 -0.44527125 -0.45090488 -0.44670278 -0.49368417 -0.39882773 -0.39680827
-0.4401003 -0.42395434 -0.37191162 -0.3424341 -0.3614832 -0.38236436 -0.38197976 -0.37748158
-0.38403946 -0.41411585 -0.45046023 -0.33896837 -0.34459305 -0.47093362 -0.38158894 -0.4487583
-0.3161464 -0.39716554 -0.4368359 -0.45953482 -0.3668583 -0.43322888 -0.42292154 -0.336962
-0.4388023 -0.46439916 -0.3927369 -0.396117 -0.44852978 -0.36601266 -0.44604552 -0.4441729
-0.4548501 -0.4162053 -0.3911448 -0.4267705 -0.44241747 -0.42538992 -0.37264317 -0.38580227
-0.47382346 -0.46126467 -0.3308859 -0.38278332 -0.34637168 -0.39416897 -0.4708356 -0.4686625
-0.33872622 -0.40880305 -0.42341018 -0.47216916 -0.3446662 -0.3801706 -0.4504449 -0.37918788
-0.44648066 -0.41433764 -0.43904868 -0.4204593 -0.4101358 -0.4578633 -0.44903886 -0.46999303
-0.34196478 -0.44350287 -0.3329054 -0.33933026 -0.44177797 -0.3400401 -0.38993078 -0.4017357
-0.34774593 -0.33953553 -0.40148857 -0.31559792 -0.4469244 -0.3399676 -0.3509674 -0.32537845
-0.4020853 -0.31845513 -0.32481474 -0.4479587 -0.31244543 -0.4581046 -0.3097826 -0.45166245
-0.38255665 -0.46054912 -0.3574094 -0.43822843 -0.4290346 -0.42587408 -0.46161497 -0.40987468
-0.41863874 -0.45687047 -0.43482932 -0.4221358 -0.3176992 -0.36637717 -0.40445352 -0.39316764
-0.37603897 -0.3964063 -0.44424346 -0.4676217 -0.4565627 -0.37318978 -0.39868113 -0.44400227
-0.3439257 -0.33805475 -0.37474194 -0.32571232 -0.44364855 -0.43684566 -0.35980272 -0.3138988
-0.38038158 -0.4542854 -0.40192527 -0.4142529 -0.44021794 -0.4203613 -0.41488326 -0.5355623
-0.40630007 -0.316422 -0.44112274 -0.38200915 -0.3286778 -0.39642894 -0.46834445 -0.39717484
-0.38597354 -0.47376105 -0.36916122 -0.41859472 -0.4685538 -0.40593776 -0.45812273 -0.33298847
-0.48822197 -0.44801813 -0.39010146 -0.38131484 -0.40638962 -0.4180415 -0.4405787 -0.32873783
-0.3125827 -0.4283965 -0.43011352 -0.50726825 -0.359053 -0.478001 -0.47331113 -0.47422773
-0.25612488 -0.24871111 -0.34762958 -0.42659312 -0.3609779 -0.39247814 -0.47992593 -0.3600521
-0.33605736 -0.41103536 -0.32344577 -0.3470852 -0.34471154 -0.31290656 -0.20206484 -0.3030111
-0.20530802 -0.33831453 -0.20678535 -0.2547145 -0.34706283 -0.35635787 -0.34134218 -0.20393519
-0.2557571 -0.2525831 -0.30403718 -0.35780343 -0.21105766 -0.3213852 -0.4065778 -0.40185827
-0.32538158 -0.35840294 -0.3674017 -0.3182328 -0.3252676 -0.4042623 -0.32702145 -0.3176116
-0.35033825 -0.20530432 -0.28111324 -0.2860555 -0.3311826 -0.3124705 -0.31992304 -0.27576837
-0.47424567 -0.36397353 -0.38666695 -0.41324875 -0.46015853 -0.47989807 -0.44182408 -0.3555844
-0.3420498 -0.3714191 -0.44624755 -0.45044634 -0.39170268 -0.4918286 -0.36045232 -0.346573
-0.3769186 -0.33213222 -0.613762 -0.5720521 -0.5252328 -0.56709796 -0.55736685 -0.47515252
-0.46320274 -0.3613419 -0.37298653 -0.2433576 -0.504297 -0.22308864 -0.36251515 -0.4975625
-0.4833478 -0.24491827 -0.24130869 -0.23079479 -0.38571298 -0.42554465 -0.34782615 -0.38092637
00000000: 5f52 eabe 0a19 fdbe 98fa e3be 01dd e6be
00000010: 3ab6 e4be 2cc4 fcbe 2633 ccbe 742a cbbe
00000020: d454 e1be 8b10 d9be 336b bebe 8653 afbe
00000030: 5314 b9be 43c5 c3be da92 c3be 4445 c1be
00000040: d2a0 c4be fe06 d4be b9a2 e6be 438d adbe
00000050: 806e b0be 361e f1be a05f c3be a6c3 e5be
00000060: f1dd a1be 4859 cbbe f5a8 dfbe 2648 ebbe
00000070: dad4 bbbe 2dd0 ddbe 2c89 d8be 4986 acbe
00000080: b2aa e0be bac5 edbe d014 c9be d9cf cabe
00000090: b2a5 e5be 0366 bbbe 1460 e4be a16a e3be
000000a0: 1de2 e8be dc18 d5be 2244 c8be aa81 dabe
000000b0: 8b84 e2be b5cc d9be 16cb bebe e087 c5be
000000c0: fd98 f2be e22a ecbe e069 a9be 2dfc c3be
000000d0: a157 b1be 84d0 c9be 5d11 f1be 88f4 efbe
000000e0: 866d adbe a24e d1be 38c9 d8be 28c0 f1be
000000f0: 1778 b0be b9a5 c2be b7a0 e6be ea24 c2be
00000100: 1d99 e4be 1024 d4be fdca e0be 7146 d7be
00000110: 52fd d1be 0f6d eabe 6ce8 e5be eda2 f0be
00000120: 0216 afbe cf12 e3be 9472 aabe b2bc adbe
00000130: b930 e2be bc19 aebe 02a5 c7be 4db0 cdbe
00000140: c10b b2be 9ad7 adbe e98f cdbe 0d96 a1be
00000150: 46d3 e4be 3c10 aebe 00b2 b3be 0198 a6be
00000160: 20de cdbe 8d0c a3be 1e4e a6be d85a e5be
00000170: d9f8 9fbe b08c eabe d39b 9ebe 4d40 e7be
00000180: 77de c3be 18cd ebbe 5dfe b6be 7a5f e0be
00000190: 6caa dbbe 2b0c dabe cc58 ecbe 18db d1be
000001a0: d157 d6be edea e9be f3a1 debe 2f22 d8be
000001b0: 78a9 a2be ca95 bbbe 8814 cfbe 454d c9be
000001c0: 2e88 c0be c4f5 cabe e173 e3be 1d6c efbe
000001d0: 96c2 e9be bb12 bfbe ef1f ccbe 4454 e3be
000001e0: 0817 b0be 8315 adbe 2dde bfbe c4c3 a6be
000001f0: e725 e3be 3caa dfbe 1038 b8be 58b7 a0be
00000200: 60c1 c2be 1998 e8be 26c9 cdbe f518 d4be
00000210: 3f64 e1be 9939 d7be 946b d4be 9c1a 09bf
00000220: 9006 d0be 1002 a2be d7da e1be b496 c3be
00000230: 7548 a8be bcf8 cabe d8ca efbe 805a cbbe
00000240: 539e c5be cf90 f2be b302 bdbe 0c52 d6be
00000250: 49e6 efbe 13d7 cfbe 108f eabe 777d aabe
00000260: 3bf8 f9be a262 e5be 61bb c7be b33b c3be
00000270: 4d12 d0be 8909 d6be 8893 e1be 5350 a8be
00000280: d70a a0be c956 dbbe d737 dcbe 55dc 01bf
00000290: cbd5 b7be 8cbc f4be d655 f2be facd f2be
000002a0: cd22 83be 20ae 7ebe 81fc b1be 6a6a dabe
000002b0: 18d2 b8be e5f2 c8be dab8 f5be c058 b8be
000002c0: b60f acbe 3a73 d2be af9a a5be 27b5 b1be
000002d0: 087e b0be 4a35 a0be 16ea 4ebe 4524 9bbe
000002e0: 443c 52be 9037 adbe 8abf 53be f069 82be
000002f0: 38b2 b1be 8a74 b6be 67c4 aebe 63d4 50be
00000300: 98f2 82be 9252 81be c3aa 9bbe 0332 b7be
00000310: 801f 58be 9a8c a4be f72a d0be 5ec0 cdbe
00000320: 6a98 a6be 9780 b7be 131c bcbe 69ef a2be
00000330: 7a89 a6be 78fb cebe 5b6f a7be fd9d a2be
00000340: 895f b3be 4c3b 52be 13ee 8fbe de75 92be
00000350: c490 a9be 22fc 9fbe f4cc a3be 8331 8dbe
00000360: 54d0 f2be bd5a babe 36f9 c5be 5795 d3be
00000370: e699 ebbe 33b5 f5be c436 e2be 290f b6be
00000380: 2721 afbe a52a bebe 8f7a e4be e7a0 e6be
00000390: 418d c8be f5d0 fbbe 358d b8be 0472 b1be
000003a0: 7afb c0be 3c0d aabe 821f 1dbf 0272 12bf
000003b0: a875 06bf 552d 11bf 98af 0ebf 3147 f3be
000003c0: e928 edbe ce01 b9be 17f8 bebe bc32 79be
000003d0: 9c19 01bf 5971 64be 969b b9be 83c0 febe
000003e0: 5d79 f7be dbcb 7abe a019 77be 7855 6cbe
000003f0: 2c7c c5be fde0 d9be 4516 b2be c808 c3be

conv2.bias f4 [32]
-0.4062979 -0.23087044 -0.44858328 -0.46371466 -0.4252985 -0.4450157 -0.31220704 -0.3727285
-0.47191888 -0.5076237 -0.32728094 -0.4120365 -0.28562507 -0.5833729 -0.35422876 -0.29183742
-0.35347325 -0.390603 -0.5484991 -0.47001976 -0.52096045 -0.35759318 -0.45647588 -0.40411782
-0.454237 -0.75187397 -0.38678265 -0.2733532 -0.5021807 -0.638377 -0.4620177 -0.20299797
00000000: 4706 d0be 4d69 6cbe b5ac e5be 026c edbe
00000010: bac0 d9be 19d9 e3be 9ad9 9fbe 45d6 bebe
00000020: 5a9f f1be a0f3 01bf 5e91 a7be 73f6 d2be
00000030: 733d 92be ed57 15bf 795d b5be b76b 95be
00000040: 72fa b4be 1efd c7be 706a 0cbf 6ea6 f0be
00000050: aa5d 05bf 7416 b7be 35b7 e9be 88e8 cebe
00000060: c191 e8be d07a 40bf 6008 c6be f3f4 8bbe
00000070: ea8e 00bf ad6c 23bf 958d ecbe b3de 4fbe

conv3.weight f4 [64, 32, 3, 3]
-0.35566795 -0.3003588 -0.3690396 -0.36639497 -0.40089113 -0.31985635 -0.3728004 -0.46268257
-0.53536856 -0.37973332 -0.344265 -0.34476718 -0.36690593 -0.30319795 -0.46712312 -0.5556883
-0.5395945 -0.55660474 0.03721965 -0.3739599 -0.4144573 -0.3082164 -0.41894367 -0.35721397
-0.34682482 -0.33368596 -0.48543435 -0.44133288 -0.36223033 -0.47590503 -0.5216922 -0.5473533
-0.34998205 -0.3361564 -0.39733788 -0.39220014 -0.35177723 -0.38254362 -0.30383554 -0.40092888
-0.46327558 -0.51738346 -0.29309267 -0.54854363 -0.36791942 -0.29470676 -0.45091572 -0.5289517
-0.46050426 -0.5548352 -0.5118375 -0.31166565 -0.31841615 -0.29840082 -0.3723763 -0.35275814
-0.36867368 -0.38405508 -0.32733577 -0.30908278 -0.32950184 -0.5067392 -0.5037126 -0.40578887
-0.3928056 -0.2978989 -0.35487053 -0.5460729 -0.37904862 -0.38297665 -0.36557174 -0.38492087
-0.30808797 -0.40971994 -0.32360694 -0.35979354 -0.40607467 -0.31448734 -0.33443436 -0.55671394
-0.4952218 -0.48385417 -0.39074937 -0.32787785 -0.5068004 -0.4673135 -0.46733192 -0.35707816
-0.5278107 -0.3068044 -0.40996063 -0.39308083 -0.37898016 -0.37703937 -0.4675187 -0.40814918
-0.4003726 -0.39534634 -0.32491133 -0.3421226 -0.38302547 -0.3684279 -0.38826582 -0.40550116
-0.5388647 -0.53102154 -0.54692787 -0.45811632 -0.3839851 -0.37846786 -0.39014703 -0.326053
-0.39141172 -0.3602175 -0.32002446 -0.50912744 -0.5197025 -0.3816619 -0.3727292 -0.3074916
-0.37012267 -0.47112605 -0.39569458 -0.30221066 -0.2953776 -0.32726976 -0.34594563 -0.3278055
-0.3630165 -0.29478782 -0.40580952 -0.31758025 -0.40690547 -0.49546185 -0.5395648 -0.3560951
-0.38791004 -0.39124113 -0.38643235 -0.401876 -0.40632018 -0.5502035 -0.48842406 -0.48928493
-0.4747587 -0.4928208 -0.56346196 -0.56076807 -0.520887 -0.55885273 -0.5244472 -0.40458146
-0.3875735 0.4554668 0.41652083 0.4991965 0.5161574 0.48228344 0.44954365 0.41851506
-0.44744575 -0.48626527 -0.4537279 0.010649631 -0.3797813 -0.37431622 -0.3714419 -0.37345245
-0.45154643 -0.45292935 -0.2949905 0.5109977 0.46801817 0.49495614 0.41828436 0.42703265
0.5002243 0.46303394 -0.39334235 -0.49406636 -0.47285998 -0.41400293 -0.31379935 -0.31248394
-0.31138006 -0.36438686 -0.35143587 -0.40282258 -0.3579879 -0.3125483 -0.3558413 -0.3175316
-0.31444654 -0.3390961 -0.39742875 -0.36426306 -0.35124362 -0.4751925 -0.43734887 -0.49651393
-0.3757191 0.3917859 -0.44570565 0.48092145 0.43816513 0.22031829 -0.44346696 -0.38615778
-0.39904857 -0.39753425 -0.32603088 -0.372542 -0.40304676 -0.30778316 -0.33417642 -0.3411807
-0.41507775 0.48403063 -0.40490612 0.49885786 0.49034822 0.41614908 -0.5138914 -0.40122828
0.44722033 -0.35681948 -0.30794382 -0.3991299 -0.37648335 -0.5601652 -0.5570826 -0.30904692
-0.5418915 -0.5507517 0.45071143 0.4030138 0.44649932 0.46389455 0.5171542 0.4092688
0.45236138 0.46319923 0.422358 -0.3828946 -0.40542635 -0.3713883 -0.40855002 -0.4758979
-0.3300654 -0.48205945 -0.3873237 -0.45730364 0.48655856 0.41526228 0.50062907 0.40602085
00000000: 1c1a b6be a1c8 99be c2f2 bcbe 1f98 bbbe
00000010: 9a41 cdbe 36c4 a3be b2df bebe bbe4 ecbe
00000020: ea0d 09bf 686c c2be 8143 b0be 5385 b0be
00000030: 18db bbbe c33c 9bbe c32a efbe 9741 0ebf
00000040: dd22 0abf a67d 0ebf a273 183d ac77 bfbe
00000050: bf33 d4be 8ace 9dbe c97f d6be c0e4 b6be
00000060: 0693 b1be e3d8 aabe da8a f8be 62f6 e1be
00000070: 4176 b9be d3a9 f3be 9f8d 05bf 591f 0cbf
00000080: d930 b3be b11c acbe df6f cbbe 75ce c8be
00000090: 251c b4be c2dc c3be 5590 9bbe 8d46 cdbe
000000a0: 7532 edbe 3e73 04bf 3e10 96be 5b6d 0cbf
000000b0: ef5f bcbe cee3 96be 6dde e6be 6169 07bf
000000c0: 37c7 ebbe ae09 0ebf c807 03bf a492 9fbe
000000d0: 7107 a3be fec7 98be 1ba8 bebe b79c b4be
000000e0: ccc2 bcbe dea2 c4be 8e98 a7be 1940 9ebe
000000f0: 77b4 a8be a9b9 01bf 4ff3 00bf 8fc3 cfbe
00000100: d11d c9be 3486 98be 97b1 b5be 6fcb 0bbf
00000110: a912 c2be 8415 c4be 382c bbbe 5914 c5be
00000120: b5bd 9dbe d0c6 d1be cfaf a5be dc36 b8be
00000130: 05e9 cfbe 7c04 a1be fb3a abbe ce84 0ebf
00000140: b68d fdbe bcbb f7be 4d10 c8be 9bdf a7be
00000150: acbd 01bf b743 efbe 2146 efbe f3d2 b6be
00000160: 9a1e 07bf 7715 9dbe 5ce6 d1be e441 c9be
00000170: b009 c2be 4e0b c1be 9c5e efbe eef8 d0be
00000180: a3fd ccbe d66a cabe c75a a6be b22a afbe
00000190: ea1b c4be 95a2 bcbe c7ca c6be d99d cfbe
000001a0: 09f3 09bf 07f1 07bf 7703 0cbf 398e eabe
000001b0: b299 c4be 8ac6 c1be 5ac1 c7be 6bf0 a6be
000001c0: 1e67 c8be 6e6e b8be 3fda a3be 2d56 02bf
000001d0: 390b 05bf 3069 c3be 5dd6 bebe 8a6f 9dbe
000001e0: b880 bdbe 6f37 f1be 7b98 cabe 5bbb 9abe
000001f0: bc3b 97be e78f a7be c91f b1be 1fd6 a7be
00000200: 4cdd b9be 6eee 96be 44c6 cfbe e199 a2be
00000210: ea55 d0be 2dad fdbe eb20 0abf 1952 b6be
00000220: 259c c6be c250 c8be 76da c5be b1c2 cdbe
00000230: 3309 d0be 23da 0cbf b812 fabe 8e83 fabe
00000240: 9313 f3be 0253 fcbe 0b3f 10bf 7f8e 0fbf
00000250: da58 05bf f910 0fbf 2c42 06bf 4d25 cfbe
00000260: 0970 c6be f232 e93e 3842 d53e af96 ff3e
00000270: e422 043f dbed f63e 962a e63e 9b47 d63e
00000280: 9c17 e5be c3f7 f8be 064f e8be ca7b 2e3c
00000290: b272 c2be 60a6 bfbe a22d bebe 2935 bfbe
000002a0: 1831 e7be 5be6 e7be ff08 97be bfd0 023f
000002b0: 14a0 ef3e e46a fd3e 5e29 d63e 06a4 da3e
000002c0: b30e 003f c912 ed3e 2b64 c9be 44f6 fcbe
000002d0: b41a f2be 31f8 d3be 4faa a0be e5fd 9fbe
000002e0: 356d 9fbe ea90 babe 67ef b3be c33e cebe
000002f0: 314a b7be 5506 a0be d530 b6be 8093 a2be
00000300: 23ff a0be 019e adbe c87b cbbe b080 babe
00000310: 34d6 b3be 6e4c f3be 31ec dfbe 1337 febe
00000320: 415e c0be 2998 c83e 8833 e4be 563b f63e
00000330: 2e57 e03e 1e9b 613e 1a0e e3be 79b6 c5be
00000340: 1850 ccbe 9c89 cbbe 85ed a6be d3bd bebe
00000350: 255c cebe c195 9dbe 2c19 abbe 3daf aebe
00000360: 1285 d4be ddd2 f73e db4f cfbe 4c6a ff3e
00000370: ec0e fb3e 7e11 d53e 638e 03bf cb6d cdbe
00000380: 10fa e43e 0bb1 b6be d0aa 9dbe c15a ccbe
00000390: 6dc2 c0be fd66 0fbf f79c 0ebf 663b 9ebe
000003a0: 67b9 0abf 10fe 0cbf a6c3 e63e d357 ce3e
000003b0: 8f9b e43e 9683 ed3e 3864 043f ae8b d13e
000003c0: e99b e73e 7328 ed3e 4f3f d83e c30a c4be
000003d0: 0b94 cfbe 9b26 bebe 782d d1be e4a8 f3be
000003e0: 55fe a8be 7fd0 f6be 4b4f c6be b423 eabe
000003f0: 341e f93e 429d d43e 3a29 003f f7e1 cf3e

conv3.bias f4 [64]
-0.32252213 -0.4763401 -0.3139231 -0.3380429 -0.46078327 -0.39921162 -0.59322923 -0.467774
-0.4042812 -0.22561595 -0.60689926 -0.2893059 -0.40918013 -0.44637772 -0.49612787 -0.09552382
-0.29788733 -0.3304699 -0.4817717 -0.28425545 -0.4217994 -0.22573803 -0.6496777 -0.54098487
0.060875382 -0.40782276 -0.34963244 -0.44196415 -0.42214125 -0.30737963 -0.32256433 -0.36057496
-0.72918814 -0.42371437 -0.2872029 -0.5246264 0.43303412 -0.35884807 -0.23414984 -0.3701027
-0.22139013 -0.4045074 -0.7041452 -0.39954948 -0.35664576 -0.36110914 -0.22978444 -0.22602715
-0.30665883 -0.44394636 -0.46663252 -0.41255662 -0.40076408 -0.3794765 -0.36536077 -0.28936234
-0.35468552 -0.57822466 -0.5151896 -0.22415364 -0.32678723 -0.31560582 -0.26895806 -0.3820632
00000000: 9f21 a5be d9e2 f3be 87ba a0be f613 adbe
00000010: c9eb ebbe 7765 ccbe dfdd 17bf 1380 efbe
00000020: f2fd cebe de07 67be c05d 1bbf e71f 94be
00000030: 0f80 d1be 9f8b e4be 7904 febe fea1 c3bd
00000040: b084 98be 5a33 a9be c8aa f6be ee89 91be
00000050: 17f6 d7be df27 67be 4751 26bf fc7d 0abf
00000060: 7758 793d 25ce d0be 0603 b3be 2049 e2be
00000070: e622 d8be dd60 9dbe 2727 a5be 489d b8be
00000080: 13ac 3abf 17f1 d8be 420c 93be ea4d 06bf
00000090: a6b6 dd3e efba b7be fac4 6fbe 1a7e bdbe
000000a0: 18b4 62be 981b cfbe dc42 34bf c091 ccbe
000000b0: 469a b6be 4ce3 b8be 9d4c 6bbe a973 67be
000000c0: 6302 9dbe f04c e3be 75ea eebe 9f3a d3be
000000d0: f330 cdbe be4a c2be 9110 bbbe 4d27 94be
000000e0: 5799 b5be 8806 14bf 77e3 03bf 8888 65be
000000f0: a850 a7be 1697 a1be dfb4 89be ca9d c3be

conv4.weight f4 [128, 64, 3, 3]
0.5196159 0.5196884 0.46640733 0.44741017 0.39330992 0.4347738 -0.44640997 -0.46509913
-0.45249397 0.49116808 0.45466855 -0.44769925 0.43028986 0.42946047 0.44510838 0.49355078
-0.4318132 -0.47196656 0.3649298 0.33311686 0.44542482 0.3351799 0.31293944 0.33181095
-0.45791632 -0.46437767 -0.47546396 -0.27121076 -0.3124249 -0.5331409 -0.32144168 -0.26421955
-0.3147308 -0.50076556 -0.4478068 -0.4628614 0.5085274 0.47665006 0.47590843 0.31738868
0.38249907 0.3112328 -0.45647156 -0.46660477 -0.42512465 -0.6181385 -0.6069015 0.015604034
-0.52971506 -0.50028896 -0.47785366 -0.44607446 -0.44555876 -0.46031392 0.44040552 0.47448397
-0.4559343 0.4426505 0.4803188 0.4946605 -0.47378263 0.46359137 0.47724015 0.46997824
0.5353307 0.33349824 0.5375471 0.31214902 0.3318188 -0.45249122 -0.44415665 -0.42761645
0.3382979 0.36055577 -0.0019457986 0.5109389 0.3171503 -0.43280903 0.4246734 -0.46894488
-0.42312875 -0.2813984 -0.28578943 -0.56003964 -0.23910075 -0.27033043 -0.54803485 -0.44123828
-0.48452467 -0.4829594 -0.461377 -0.46528602 -0.030631136 -0.46715084 -0.44819224 -0.44246876
-0.49462676 -0.45013756 -0.42867348 -0.22360279 -0.28821242 -0.4391696 -0.2687059 -0.44701332
-0.4132232 -0.44229636 -0.49062625 -0.4606652 0.46360868 0.5102283 0.35868892 0.33106968
0.49734765 0.32125005 0.018589716 -0.0038684409 -0.4292711 -0.4487182 -0.43181396 -0.45674312
-0.43646693 -0.4299402 -0.47140938 -0.4220227 -0.47415715 -0.44962838 -0.2799543 -0.3141641
-0.43102804 -0.25612414 -0.24173068 0.47463077 0.47938022 -0.44702452 0.45813727 -0.68198633
-0.71619165 -0.38162756 -0.5478797 -0.7052779 -0.5020095 0.47225735 -0.46047345 -0.4610777
-0.54165334 -0.36139476 -0.021541532 -0.59636927 -0.57303774 -0.493203 -0.012905002 -0.020420503
-0.4377547 -0.28247842 -0.2445299 -0.5559587 -0.28375223 -0.3062499 -0.52607715 -0.4407267
0.48932618 -0.46548045 -0.2524574 -0.26289284 -0.4490769 -0.29388237 -0.3132581 -0.45583564
0.4265675 -0.4671514 -0.46472776 -0.24424559 -0.23015703 -0.42403382 -0.27679977 -0.2554818
-0.2383472 0.4926776 0.42161644 0.4226445 -0.26534525 -0.24974395 -0.3954151 -0.23315805
-0.2876688 -0.42011532 0.48071098 0.46555138 0.49282396 -0.26051587 -0.27445188 -0.40949696
-0.2997797 -0.23437423 -0.2465361 -0.47214356 0.4475816 -0.47468963 -0.4949459 0.44172293
8.6933374e-05 -0.45738965 -0.49350384 -0.42530215 0.45595238 -0.46184853 -0.42147693 0.4798206
0.4565455 -0.4275177 0.4880487 0.45009178 0.47323534 -0.5024235 0.4907432 0.48898116
-0.5719927 -0.6639731 0.3861001 -0.6194353 -0.66322094 -0.4954018 -0.4660655 -0.4838144
-0.43532386 0.37604365 0.33260712 -0.409319 0.36771128 0.38426194 -0.4974219 -0.4290963
-0.46560735 -0.42527142 0.32937172 0.31230456 0.49970534 0.3377706 0.31794396 0.24696863
0.4747869 -0.4755452 -0.48629788 -0.4413245 0.45211872 0.0338682 -0.46932378 -0.4994507
-0.48854282 -0.040094033 -0.46023628 -0.444854 -0.5026131 -0.4675949 0.018538615 -0.43466812
00000000: 8c05 053f 4d0a 053f f1cc ee3e f212 e53e
00000010: eb5f c93e ac9a de3e d98f e4be 7921 eebe
00000020: 4aad e7be 627a fb3e 51ca e83e d638 e5be
00000030: f44e dc3e 3ee2 db3e 3fe5 e33e b0b2 fc3e
00000040: 9f16 ddbe 9aa5 f1be 14d8 ba3e 4b8e aa3e
00000050: b90e e43e b39c ab3e 9939 a03e 20e3 a93e
00000060: 0274 eabe e9c2 edbe 0370 f3be 23dc 8abe
00000070: 28f6 9fbe ec7b 08bf 0194 a4be c947 87be
00000080: 6524 a1be 2c32 00bf ef46 e5be 2bfc ecbe
00000090: da2e 023f 7a0b f43e 45aa f33e c580 a23e
000000a0: ebd6 c33e e859 9f3e a4b6 e9be d2e6 eebe
000000b0: f0a9 d9be 533e 1ebf e65d 1bbf 10a8 7f3c
000000c0: 689b 07bf f012 00bf 3ca9 f4be df63 e4be
000000d0: 4720 e4be 44ae ebbe d57c e13e 90ef f23e
000000e0: 3870 e9be 16a3 e23e 59ec f53e 2444 fd3e
000000f0: a393 f2be d95b ed3e d258 f43e fda0 f03e
00000100: 6f0b 093f 48c0 aa3e b09c 093f ffd1 9f3e
00000110: 27e4 a93e eeac e7be 8068 e3be 8bf0 dabe
00000120: 6235 ad3e c49a b83e 2b0a ffba e4cc 023f
00000130: 8661 a23e 2599 ddbe cb6e d93e 8b19 f0be
00000140: 55a4 d8be 7313 90be fe52 92be c25e 0fbf
00000150: d4d6 74be c068 8abe 034c 0cbf fce9 e1be
00000160: 9e13 f8be 7446 f7be 9b39 ecbe f839 eebe
00000170: 26ee fabc 652e efbe 7479 e5be 448b e2be
00000180: b83f fdbe 6e78 e6be 177b dbbe 21f8 64be
00000190: 9490 93be d6da e0be d293 89be eede e4be
000001a0: fe91 d3be ab74 e2be 5d33 fbbe 4fdc ebbe
000001b0: 1e5e ed3e 529e 023f 13a6 b73e f781 a93e
000001c0: 5aa4 fe3e e37a a43e 7649 983c ab85 7dbb
000001d0: 6cc9 dbbe 64be e5be b816 ddbe 3cda e9be
000001e0: 9878 dfbe 1f21 dcbe 925c f1be 5c13 d8be
000001f0: bac4 f2be b135 e6be 2c56 8fbe 1eda a0be
00000200: b5af dcbe b422 83be 3f88 77be ce02 f33e
00000210: 5371 f53e 66e0 e4be f890 ea3e a896 2ebf
00000220: 5658 37bf b064 c3be d841 0cbf 188d 34bf
00000230: b283 00bf b7cb f13e 2dc3 ebbe 6012 ecbe
00000240: cba9 0abf bc08 b9be de77 b0bc a8ab 18bf
00000250: 9ab2 12bf 1b85 fcbe 806f 53bc e648 a7bc
00000260: 6221 e0be 03a1 90be 0c66 7abe 4f53 0ebf
00000270: f947 91be c9cc 9cbe feac 06bf eea6 e1be
00000280: f688 fa3e 7453 eebe 1942 81be e499 86be
00000290: 68ed e5be c077 96be 5e63 a0be 4a63 e9be
000002a0: 0e67 da3e 782e efbe ccf0 edbe 841b 7abe
000002b0: 49ae 6bbe f61a d9be b3b8 8dbe 83ce 82be
000002c0: 4a11 74be 3d40 fc3e 1cde d73e dc64 d83e
000002d0: 55db 87be e1bc 7fbe d973 cabe fcc0 6ebe
000002e0: 5349 93be 5b19 d7be c01f f63e c05c ee3e
000002f0: 6c53 fc3e 5662 85be f584 8cbe 96a9 d1be
00000300: ba7c 99be ccff 6fbe f673 7cbe cdbc f1be
00000310: 6a29 e53e 850a f3be 8d69 fdbe 8229 e23e
00000320: 0050 b638 fa2e eabe 89ac fcbe 34c1 d9be
00000330: 9772 e93e 6977 ecbe d3cb d7be 0cab f53e
00000340: 55c0 e93e 9ae3 dabe 85e1 f93e 6e72 e63e
00000350: e74b f23e d49e 00bf b142 fb3e bd5b fa3e
00000360: 1d6e 12bf 24fa 29bf eaae c53e 5093 1ebf
00000370: d9c8 29bf 4ea5 fdbe 23a0 eebe 85b6 f7be
00000380: c5e2 debe cb88 c03e 7b4b aa3e 4392 d1be
00000390: a744 bc3e fbbd c43e 15ae febe 83b2 dbbe
000003a0: 1664 eebe 2dbd d9be 69a3 a83e 62e6 9f3e
000003b0: 61d9 ff3e 45f0 ac3e 8dc9 a23e 58e5 7c3e
000003c0: 4517 f33e a97a f3be 09fc f8be 49f5 e1be
000003d0: 1b7c e73e 62b9 0a3d 354b f0be 01b8 ffbe
000003e0: 4922 fabe a439 24bd 17a4 ebbe e7c3 e3be
000003f0: 41ab 00bf 9968 efbe 4bde 973c d28c debe

conv4.bias f4 [128]
-0.23774695 -0.43584976 -0.48576027 -0.40141594 -0.482017 -0.26127425 0.36124137 -0.4030837
0.36607653 -0.17884305 -0.4067083 -0.40399083 -0.4114548 -0.5529796 -0.2955749 -0.42522994
-0.43814772 -0.395878 -0.26069406 -0.48254687 -0.41720003 -0.23965658 -0.41070604 -0.25738865
-0.4939954 0.3895157 -0.4966828 0.35250905 -0.49333385 -0.23743302 -0.2823261 -0.2996558
-0.42214787 -0.70027333 0.35594562 -0.27860966 0.36954957 -0.41187412 -0.5059429 -0.45502484
-0.4843471 -0.43872517 0.30162108 0.36643985 0.027527811 -0.39544237 -0.40591964 0.19781044
0.37463924 -0.44317794 -0.70681727 -0.031031739 -0.5002507 -0.47275347 -0.27622357 -0.29552743
-0.27099478 -0.3982021 -0.24533896 -0.24028088 -0.5169015 -0.4124671 -0.4470691 -0.40530264
-0.42778838 -0.24033952 -0.24284089 -0.39116865 -0.4992528 -0.15850803 0.33693442 0.15223658
-0.0068093035 -0.25457206 -0.47752896 -0.24528828 -0.40150335 -0.23678683 -0.48911053 -0.2609964
-0.2706016 -0.24261636 -0.61657447 -0.4351218 -0.4627012 -0.2756807 -0.26668516 -0.26728764
-0.5159634 -0.5495009 -0.27637812 -0.42475593 -0.40764543 -0.3072473 -0.48928124 -0.41891706
-0.4656177 -0.5326509 -0.4105937 -0.5029063 -0.28135988 -0.3922551 -0.40676084 -0.46495265
-0.42419648 -0.26278174 -0.5019907 -0.44485736 -0.23100492 -0.4935546 -0.4270765 -0.24683852
-0.4284703 0.10350275 -0.44430447 -0.30657968 -0.2453895 -0.3933101 -0.2763725 -0.42474234
-0.27632242 -0.43428376 0.36316386 -0.4396295 -0.433932 -0.40097007 0.3721396 -0.8098727
00000000: f073 73be b327 dfbe 92b5 f8be 6486 cdbe
00000010: efca f6be bdc5 85be a1f4 b83e fd60 cebe
00000020: 626e bb3e a222 37be 123c d0be e3d7 cebe
00000030: 34aa d2be 1290 0dbf 9855 97be bdb7 d9be
00000040: e654 e0be 85b0 cabe b179 85be 6210 f7be
00000050: 3e9b d5be 8968 75be 1048 d2be 72c8 83be
00000060: f7ec fcbe 9a6e c73e 354d febe 117c b43e
00000070: 4196 fcbe a421 73be 0c8d 90be 7c6c 99be
00000080: c423 d8be 1d45 33bf 813e b63e eda5 8ebe
00000090: 9a35 bd3e 2ae1 d2be 7985 01bf 04f9 e8be
000000a0: 58fc f7be 96a0 e0be 146e 9a3e 019e bb3e
000000b0: 0182 e13c 6c77 cabe b3d4 cfbe d28e 4a3e
000000c0: b7d0 bf3e 38e8 e2be faf1 34bf 4636 febc
000000d0: 6e10 00bf be0c f2be 2d6d 8dbe 5f4f 97be
000000e0: d4bf 8abe 25e1 cbbe 233a 7bbe 310c 76be
000000f0: a853 04bf e32e d3be 3ee6 e4be d483 cfbe
00000100: 1407 dbbe 901b 76be 48ab 78be 4247 c8be
00000110: 109e ffbe ee4f 22be ab82 ac3e e8e3 1b3e
00000120: 9420 dfbb 4557 82be ad7e f4be da2c 7bbe
00000130: d991 cdbe 3f78 72be b26c fabe 52a1 85be
00000140: 4b8c 8abe 6c70 78be d3d7 1dbf 49c8 debe
00000150: 2ce7 ecbe 0526 8dbe f58a 88be edd9 88be
00000160: 2d16 04bf 17ac 0cbf 6f81 8dbe 9c79 d9be
00000170: e7b6 d0be 854f 9dbe 1283 fabe 4c7c d6be
00000180: 7165 eebe cf5b 08bf 5639 d2be 78be 00bf
00000190: 670e 90be a9d5 c8be f542 d0be 460e eebe
000001a0: 4830 d9be 548b 86be 7682 00bf 58c4 e3be
000001b0: 8e8c 6cbe 30b3 fcbe c5a9 dabe 3dc3 7cbe
000001c0: 7660 dbbe 40f9 d33d e07b e3be 03f8 9cbe
000001d0: 6347 7bbe f15f c9be b280 8dbe d477 d9be
000001e0: 227a 8dbe 715a debe 9df0 b93e 1e17 e1be
000001f0: 562c debe f34b cdbe 1589 be3e d153 4fbf

fc.weight f4 [1, 128]
0.20268267 0.34700304 -0.3189218 0.32749537 0.45384556 0.25304085 0.36928695 0.33369488
0.20378806 0.6183711 0.34433815 0.3641159 0.3135059 -0.2786175 0.23055728 0.3148673
0.3426891 0.33826253 0.2618515 -0.30494714 0.37364808 0.19755724 0.31706116 0.34144264
0.38591635 0.43780023 0.4608008 0.39304385 0.38278377 0.24570918 0.19217779 0.23527823
0.32602474 -0.42836046 0.32426172 0.20130274 0.40409675 0.38765106 0.14595899 0.30226094
0.45164618 0.3542997 0.39976084 0.45391297 0.3929138 0.3169162 0.3461856 -0.42231357
0.39534932 0.32524744 -0.37374467 -0.25981143 -0.30811077 -0.32497075 -0.32197103 0.20901848
0.24261427 0.33794 0.233752 0.22101788 -0.2900364 0.33630574 0.38358393 0.32213333
0.33733958 0.38198432 0.2351264 0.2748665 -0.27179345 0.38841018 0.30906293 -0.4307355
-0.3110893 0.22746423 0.39005435 0.23044273 0.3347487 0.24652854 0.38496017 0.23444511
0.272135 -0.34594253 -0.39644596 0.3203947 -0.34616214 0.1897423 0.20856157 -0.35037518
-0.41945165 -0.28245682 0.19666931 0.308798 0.29555964 0.34907037 -0.31113374 0.3753218
-0.31819424 0.33573967 0.31517732 -0.28708804 0.20271759 0.3056863 0.33588734 0.4526411
0.33951622 0.26878098 0.39718437 0.37886217 0.19107316 -0.33059514 0.30265948 0.2063633
0.29464677 -0.42834225 0.29793218 0.24061514 0.21376996 0.31620547 0.21319509 0.3291433
-0.42595968 0.28351942 0.35368228 -0.06355581 0.3398284 0.29363516 0.079634435 -0.3938118
00000000: 0c8c 4f3e 62aa b13e b849 a3be 79ad a73e
00000010: 725e e83e 928e 813e 2e13 bd3e 0eda aa3e
00000020: d1ad 503e 924d 1e3f 174d b03e 666d ba3e
00000030: d883 a03e f4a6 8ebe 3517 6c3e 4936 a13e
00000040: f274 af3e bf30 ad3e 6611 863e 0822 9cbe
00000050: cd4e bf3e 724c 4a3e d755 a23e 92d1 ae3e
00000060: d496 c53e 5a27 e03e 15ee eb3e 0b3d c93e
00000070: 3cfc c33e 309b 7b3e 41ca 443e c7ec 703e
00000080: b7ec a63e 1052 dbbe a205 a63e 4e22 4e3e
00000090: c5e5 ce3e 337a c63e 4676 153e f2c1 9a3e
000000a0: 2b3e e73e c566 b53e 74ad cc3e 4867 e83e
000000b0: ff2b c93e d742 a23e 3d3f b13e 7c39 d8be
000000c0: 3a6b ca3e d586 a63e 765b bfbe 0106 85be
000000d0: b2c0 9dbe 9162 a6be 63d9 a4be f108 563e
000000e0: e06f 783e 7906 ad3e af5c 6f3e 8352 623e
000000f0: a77f 94be 4430 ac3e 1d65 c43e a9ee a43e
00000100: c6b7 ac3e 7393 c33e fac4 703e 4dbb 8c3e
00000110: 8328 8bbe b3dd c63e 7f3d 9e3e 5d89 dcbe
00000120: 1947 9fbe 62ec 683e 34b5 c73e 2ef9 6b3e
00000130: 2e64 ab3e fa71 7c3e 8019 c53e 6112 703e
00000140: 4755 8b3e 611f b1be f7fa cabe c60a a43e
00000150: 2a3c b1be ce4b 423e 2a91 553e 6064 b3be
00000160: 5ec2 d6be 2e9e 90be ae63 493e c51a 9e3e
00000170: 9853 973e 5ab9 b23e ec4c 9fbe 2e2a c03e
00000180: 5bea a2be 12e6 ab3e ec5e a13e 34fd 92be
00000190: 3395 4f3e ea82 9c3e 6df9 ab3e 93c0 e73e
000001a0: 12d5 ad3e a99d 893e c05b cb3e 39fa c13e
000001b0: afa8 433e c443 a9be 2ff6 9a3e e750 533e
000001c0: f1db 963e ad4f dbbe 918a 983e d163 763e
000001d0: 83e6 5a3e afe5 a13e d04f 5a3e 7885 a83e
000001e0: 6317 dabe 7529 913e d815 b53e 8c29 82bd
000001f0: fdfd ad3e 5957 963e 6117 a33d b3a1 c9be
