CNN_multi/outputs/final_model.pth (torch, 147213 bytes, 21 tensors)

conv1.weight f4 [16, 8, 2, 2]
00000000: efe2 303d 82e1 e53c 7121 a4bd 185e 833d
00000010: 62a3 25be 2a1f 163d 07c9 ecbd 12c9 b9bc
00000020: 9fd8 b53c 7e8e 193e 3ef2 adbd 8b9c e63d
00000030: fcc9 a4bc 9954 a7bd 4a3f 1bbe c8bd 23be
00000040: fc01 2b3e 4b2e 4cbd 2b41 473b 652f 2c3d
00000050: 8f01 f03d e683 173e 5edd 0f3e df09 09be
00000060: 385f f6bc f6d1 d9bd fb54 d2bd 9acb 243d
00000070: d7e9 293e eb03 11be 7e1b db3d 7bb4 bbbd
00000080: 6b60 c0bc 329f 1a3e 4aef eebc 2609 dd3c
00000090: 2d60 fdbd 45eb 193e 86bd bcbc 7bb2 04be
000000a0: 3794 413d d76a 05be 656c 14be 5f8a be3b
000000b0: 4dee 053e 848b 73bd 26f9 963d 18a4 113e
000000c0: 1bea 043e a3cf a3bd 0264 e2bb f5d0 2fbd
000000d0: f376 12be 11d2 56ba fd47 073e ee78 173e
000000e0: 96ce 4a3c 8982 133d 1a38 a5bd 9c4a 043e
000000f0: baa5 96bd be7d fbbd a001 df3c 2e00 d93d
00000100: 7eca 24be 8a11 223e 1de8 793d a630 01be
00000110: dd8a 0cbd 11e0 203e 037b 06be b6c8 42bd
00000120: 165d 5e3d 46ff 22be 6464 bf3d 2c18 b53d
00000130: e059 df3d 6ad1 e8bd dec5 353e 109a d4bd
00000140: f713 313e fc57 32be ff7a 27be 8dba d13d
00000150: 56a7 a93c 2989 4b3c dfde c3bd 095c 92bd
00000160: 0aa1 4bbd 5b39 2ebe 0b44 463c ef59 0c3d
00000170: 00f0 1cb9 98d3 693d a7c2 2b3e 4885 403d
00000180: bb62 a9bd 3888 b9bd 7e43 06be 00bf 0fbe
00000190: a687 32bd 5363 3bbd b918 823d 2162 b8bd
000001a0: b501 033e 9846 0bbe 832c 4dbc e974 163e
000001b0: a984 2a3e 8b3d e2bd 05f1 b53c e15c 523c
000001c0: aaba d3bd 227f a5bd fc26 e03c ed23 12be
000001d0: 4697 603c 80a8 7c3d c655 aebd a436 073e
000001e0: 0414 cebc d623 8a3d f56a 253e 0dc9 88bd
000001f0: 1abc c43d 781b 4fbd 4889 d3bc a06b f5bc
00000200: 00f3 8fba 8513 a8bd 2e6a 343d 89a1 34bb
00000210: 1e7e e53d d6a3 46bd 14c8 aa3c 141b 95bd
00000220: 6698 17be 1f61 7a3d 165e d03c a163 9dbd
00000230: 6cd0 74bd 85f6 243d eed1 e9bc efa7 e73d
00000240: 500e 243c 7542 4c3d 7f5a 9f3d 424b 62bd
00000250: 32a4 9c3d 44c1 ee3d 124a 383c 2d8d dc3c
00000260: 607a d23b 92a0 e43d 5381 91bd e62f cbbd
00000270: 7ac2 9d3d 2f8b 1dbe 80bd 393b 947f a6bd
00000280: 6a16 023e 9672 1dbe 9586 f03d ccbf 3d3e
00000290: 748c 9d3c a93c e7bc dc40 213e 3078 bcbd
000002a0: e9a8 fdbc 8e51 c1bd e7c1 28bd 59ad af3c
000002b0: 072e 903b 5a47 58bd af9f 48be 9c3f 28bc
000002c0: 1f1b 50bb 657a f13c 52a8 0c3e cbcc 323e
000002d0: b7d2 f8bd 25b6 e1bc cefd b2bd cfc3 37be
000002e0: 2583 15be fc18 183e f187 af3d 8fe4 9e3d
000002f0: 5633 c93d e9d0 0fbe 8815 983c 337a 283e
00000300: ca65 bbbd 204d 283e 590d 5c3d 389e 063e
00000310: 8980 9dbd b294 a43d a0f5 21be 8c68 4fbc
00000320: af38 643d ca95 493d 24b9 133e 5312 2e3e
00000330: 4903 203e 9c6d e83d 05b1 f43d e96b e5bc
00000340: e6ca 0abe 5e03 84bd 8c4b 98bc 14ba c0bd
00000350: cc24 c13d 1994 863d 26da 043d b9b1 3d3d
00000360: 2796 1c3e 96a3 7d3d 8c68 21be 4528 06be
00000370: 8291 9f3d 785a c53c 2e90 b03d a1c9 34be
00000380: a060 27be 9b35 de3d e13e e33d 1939 23be
00000390: f71d 873d 29dc 12be 6e09 083e 127b 4d3d
000003a0: eb6e 303e c3fe 34be b6e8 30be d5b8 ef3d
000003b0: 6cec 1c3e 75b0 d83d 0c28 e93d 8d05 1bbe
000003c0: 614c 013e afac 2ebe 764d 1a3d 5d07 f5bd
000003d0: ef18 95bd 4a4e d53c dadf 93bd f0ba 07bd
000003e0: 96f9 2dbe a15f 2fbe 7b7a 873d 7b9b a2bd
000003f0: b442 dcbd a2da 8ebd e7fe 13be f7b4 10be
0.04318517 0.028061632 -0.08014191 0.06414431 -0.16175607 0.036650814 -0.115617804 -0.022678886
0.02219802 0.14995763 -0.0849347 0.11260327 -0.020115845 -0.081704326 -0.15160862 -0.15990365
0.16699976 -0.049848836 0.0030403833 0.042037386 0.11719047 0.14796409 0.14049289 -0.13382672
-0.0300747 -0.1063575 -0.10270115 0.040233232 0.16593109 -0.14161651 0.10698603 -0.09165283
-0.023483476 0.1509979 -0.029166836 0.026981901 -0.1237186 0.15031154 -0.02303959 -0.1295871
0.04726049 -0.13029037 -0.14494474 0.005814835 0.13079186 -0.059459224 0.0737174 0.14222753
0.12979929 -0.07998588 -0.0069088945 -0.042923886 -0.14303188 -0.00081947545 0.13211055 0.14792225
0.0123783555 0.03601316 -0.08067341 0.12919086 -0.073558286 -0.12279843 0.027222455 0.105957374
-0.1609287 0.15827003 0.061012376 -0.12616214 -0.034312118 0.15710475 -0.13132863 -0.047554694
0.054287992 -0.15917692 0.0934532 0.08842501 0.10905814 -0.113680676 0.17751262 -0.103809476
0.17292772 -0.17416376 -0.16355513 0.1024066 0.020709675 0.012422838 -0.09563994 -0.071464606
-0.049714126 -0.17014067 0.012101184 0.034265455 -0.00014966726 0.057086557 0.16773473 0.047002107
-0.082707845 -0.09059185 -0.13111684 -0.14037704 -0.043586396 -0.04574902 0.06352372 -0.090030916
0.1279362 -0.13601148 -0.012522819 0.14693035 0.16652168 -0.11046895 0.022209654 0.012839527
-0.10338338 -0.08080889 0.02736234 -0.14271517 0.013707941 0.06168413 -0.08512454 0.13204437
-0.025156029 0.067451164 0.16154082 -0.066789724 0.0960619 -0.050563306 -0.025822297 -0.029958546
-0.0010982454 -0.08206848 0.044046573 -0.0027562103 0.112056956 -0.04849609 0.020847358 -0.07280555
-0.14804229 0.06112778 0.025435489 -0.07685018 -0.05976908 0.04027416 -0.028542485 0.11311328
0.010013178 0.049868066 0.07780933 -0.055247553 0.07648505 0.11657956 0.0112481285 0.026922787
0.0064232796 0.11163439 -0.07104745 -0.09921245 0.07703109 -0.15385126 0.002834171 -0.08129802
0.12703863 -0.15375742 0.117444195 0.18530196 0.019232012 -0.028227167 0.15747398 -0.092026114
-0.030964332 -0.094393834 -0.041200545 0.021444963 0.004400018 -0.05280242 -0.19592164 -0.010269072
-0.0031754447 0.029477308 0.13736084 0.17460935 -0.12149566 -0.027552674 -0.08739816 -0.17945789
-0.14600809 0.14853281 0.08570851 0.07758438 0.09824245 -0.14044537 0.018564954 0.16452865
-0.09150274 0.16435671 0.053723667 0.13146293 -0.07690532 0.08036174 -0.15816355 -0.012659203
0.05571812 0.049215116 0.14426094 0.16999178 0.15626253 0.11349031 0.11947826 -0.028005557
-0.13553962 -0.06445955 -0.018590711 -0.094104916 0.094308466 0.06571216 0.032434605 0.046312068
0.15291654 0.061923586 -0.15762538 -0.13101299 0.07791425 0.02409099 0.0862125 -0.1765504
-0.16345453 0.10850068 0.110959776 -0.1593975 0.06597512 -0.14341797 0.13284847 0.050166197
0.17229812 -0.17675309 -0.17276272 0.11705176 0.15324563 0.105805315 0.113845915 -0.15138836
0.12626792 -0.17058061 0.03767153 -0.11964295 -0.07280146 0.026038308 -0.07220431 -0.033137262
-0.1698974 -0.17126323 0.06615158 -0.07939812 -0.1075491 -0.06975295 -0.14452706 -0.14131533

conv1.bias f4 [16]
00000000: 749f 9dbd 2d47 bfbd e78f 8d3d 6ed5 10be
00000010: ee69 23be 4ca7 20be 5762 a13d 3960 bc3d
00000020: 5450 efbd d6fb 2f3d f828 073e 0e0d 173d
00000030: 03ac fabc c984 f53b 6f34 95bc ceb2 ae3d
-0.07696429 -0.093397476 0.06912213 -0.14143917 -0.15958378 -0.15688819 0.07880085 0.091980405
-0.11685243 0.04296478 0.13199222 0.036877684 -0.0305996 0.007492636 -0.018213479 0.08530198

conv2.weight f4 [32, 16, 2, 2]
00000000: c71e b0bd 26eb 803d 4ef2 8e3d cd1b 9cbd
00000010: 7a72 c73d 780a f23d 5e92 5abd f0ae 1fbd
00000020: f05c 843d 4085 c3bd eb8e 563d 6c4a 013d
00000030: 17e8 c63d 296e bbbd eab3 afbd a778 953d
00000040: 8c6d 383d b246 eebd c6c2 8ebd 083c eabd
00000050: 3d1e c1bd 2f9f 7bbd 675c cb3d bee8 eebc
00000060: 66aa 893d 7af1 e93d f016 583d d15a edbd
00000070: 4f92 753d 0b5a 383d 85a2 bf3d 746e 02be
00000080: cdbe 953d a059 c93d 1cba f5bd 5764 173c
00000090: d4c3 d73d 80d2 c1bd d12c 233d 46f9 523d
000000a0: deb7 143d c7a6 023e 8fdb d83d ee24 e23d
000000b0: 7ceb a1bc 1c17 ce3d b0af f6bd 7b11 92bd
000000c0: 9265 fcbc 352b 29bd f1a3 e43d 4bf1 613d
000000d0: 81c2 ab3d 827c b43d 3b39 b8bd 24b0 3fbc
000000e0: 1faf ad3c fa41 103d f1f2 893d b4a8 41bd
000000f0: 575f 04bd 14e4 e03d 6c67 e6bc e8f1 a7bd
00000100: 7ff1 ab3d dbc5 aa3d c3b9 23bd e37f d6bc
00000110: 2707 b2bd fa6e ccbd 032d 563d 0be4 48bd
00000120: 2187 cd3d 89a5 cbbd d5ca 86bc 2d72 593b
00000130: 345a b03d a3b3 fb3d 0c61 da3d e632 9d3d
00000140: 3c01 6bbd 265d c0bd 5805 e5bd 31f5 c93a
00000150: bc10 d63d a383 2bbd bea5 bbbc c032 e0bd
00000160: 3d94 1d3d b271 a13d 6d8e fcbd 2de9 b5bd
00000170: 52d8 be3d a4cd db3c 35df f7bb 5bea 9a3c
00000180: c800 b7bc ef82 b8bd 5e31 f1bd 581d 9f3d
00000190: 516b 9bbc aa67 4fbd 25f3 15bd 2881 95bd
000001a0: ad6a 12bd 0d9e d9bd 7a35 c23d 6047 553d
000001b0: 6f57 a2bd 8929 77bd 5555 1f3d b065 83bd
000001c0: 469d 913c 0797 993c 0f07 c1bd a90e 863c
000001d0: af87 183c 7e84 e23d f72a 32bd 7127 fbbc
000001e0: 9f67 de3d cf92 cfbd d6f6 233c 9837 f83d
000001f0: 1818 52bd 9c2c fe3d b521 ed3d c624 f73d
00000200: 2f81 afbb 7ce7 f53d ee78 42bd 440d 11bd
00000210: bcd2 5b3d 87cc 073d 0a01 9b3d 2aec 003e
00000220: 3290 9cbd c531 8a3d 94b9 333d 0baa 893d
00000230: 8a6b 1a3d 9b5e 8cbd b803 f2bd def3 a33d
00000240: f6fa 91bd f2aa a33d 72b0 edbd dc29 98bc
00000250: c757 523c d5f3 043d 21f5 a93c aa9b 4c3d
00000260: 3c2c e0bb b2b0 1c3d 4f67 063e 4a9e 95bd
00000270: 9469 22bc 9b78 54bd 524b d73d d20e d33d
00000280: 848d 323b 29c2 18bd ce05 91bd 02d7 c33d
00000290: dea9 e2bb cc80 f43d f458 953d 07f5 e23d
000002a0: 6ad2 ce3d bc66 a3bd e5f5 1d3d bf7b 4fbd
000002b0: b164 933d 79ab d9ba 43a8 a23c 2812 9ebd
000002c0: 40ef d1bd a980 663d a3cf 1c3d ceaa a43c
000002d0: f10f ac3d 779a 5dbd c8d0 313d a287 91bd
000002e0: e3ee dd3c b3ba e5bc a0c4 b53d 4966 e03d
000002f0: e39d d03d f910 0bbb 8606 893d a84e 08be
00000300: 7f71 92bd 7ea0 be3c 1a89 b13a 8c15 cabd
00000310: 95f7 4dbd a00c 5abd 51c9 efbd 330d 903c
00000320: 3ced b73d 7a6e 5e3d f857 68bd 331e e8bd
00000330: 8415 a0bd 5b78 d63c b868 de3d 69fb debc
00000340: 164d 8bbd 57ce 97bd 74f9 7abc a2fe fdbd
00000350: 03d4 fdbd 2e53 e03d 88a8 97bd 31d3 16bd
00000360: 9367 ffbc bcf1 dcbd e6bf a9bc 455f 1f3d
00000370: ed03 49bd 7f73 4cbc 6cd7 ed39 64d5 06be
00000380: 3ec1 b53d 0a78 cb3d 70ec a83d c047 32bd
00000390: ff78 873d c0fc eebd f230 08bd 01fe e7bc
000003a0: 663b 21bd 4707 673d ec3c 5abd 1f07 45bc
000003b0: ead8 36bd 1ecf 01be fcc7 f3bc 6967 eebd
000003c0: bc3b 7b3d 5ceb 613d 5244 cd3d b792 71bd
000003d0: 117a 393c 5e73 e83c 1d6c 033e f67a ef3d
000003e0: d88c 76bd 6105 d3bd 6243 e0bd 6c32 6fbd
000003f0: 2ed3 e63d 8127 463d 1820 023e de64 c73d
-0.0859962 0.06294851 0.0697981 -0.0762249 0.097386315 0.11818403 -0.053362243 -0.038985193
0.06463039 -0.095469 0.05238239 0.031565115 0.097122364 -0.09151871 -0.08579238 0.07298403
0.045026347 -0.11634578 -0.06970744 -0.11437231 -0.094295956 -0.061431106 0.09929734 -0.029163714
0.06721954 0.11423011 0.05275625 -0.115895875 0.059953984 0.045007747 0.0935717 -0.12737447
0.07311783 0.09831548 -0.11998388 0.0092402315 0.10535398 -0.09463978 0.039837662 0.051507257
0.036308162 0.12758933 0.105887525 0.110422 -0.019765608 0.100630015 -0.120452285 -0.071322404
-0.030810151 -0.04130097 0.11164082 0.055161756 0.08386708 0.088128105 -0.08995291 -0.01169971
0.021201668 0.03521917 0.067357905 -0.04728003 -0.032317486 0.109810024 -0.028125487 -0.08200437
0.08395671 0.08338519 -0.039972078 -0.026184028 -0.086927705 -0.099821046 0.05228902 -0.049045604
0.100355394 -0.09943683 -0.01645414 0.0033179626 0.08610955 0.12290122 0.106630415 0.07675724
-0.057374224 -0.09392767 -0.1118266 0.0015408156 0.104524106 -0.041873585 -0.02290618 -0.1094718
0.03847145 0.07883014 -0.12331853 -0.088823654 0.093186036 0.026831456 -0.00756445 0.018910578
-0.02233924 -0.090093486 -0.11776994 0.07769269 -0.01897207 -0.05063597 -0.036608834 -0.07300025
-0.035746265 -0.10625849 0.09482856 0.05207002 -0.07926833 -0.060342345 0.03889974 -0.0641588
0.01777519 0.018748773 -0.094251744 0.016364412 0.009309693 0.11060427 -0.043498006 -0.030658456
0.10859608 -0.101354234 0.010007581 0.12119979 -0.05129251 0.12410852 0.11578695 0.12067561
-0.005355976 0.12007043 -0.04747861 -0.03541304 0.05366777 0.033154037 0.075685576 0.1259009
-0.076446906 0.06747774 0.043878153 0.06721886 0.037700213 -0.06853982 -0.118171155 0.08005498
-0.07127945 0.079915896 -0.1160592 -0.018574648 0.012838311 0.0324591 0.02074677 0.04995314
-0.0068412106 0.038254447 0.13125347 -0.07305582 -0.009912867 -0.05187283 0.10512413 0.10305561
0.0027244994 -0.03729454 -0.07081185 0.09562494 -0.0069172224 0.119386286 0.07292357 0.110818915
0.10098727 -0.079785794 0.03856458 -0.050655123 0.0719694 -0.0016606889 0.019855624 -0.07718307
-0.102507114 0.056275044 0.038283955 0.020100977 0.08401478 -0.054102387 0.043412 -0.07105948
0.02709145 -0.028043127 0.08875394 0.10957009 0.101863645 -0.0021219833 0.06690697 -0.13311255
-0.07150554 0.023269888 0.0013544888 -0.09867391 -0.05028494 -0.053234696 -0.1170832 0.017584419
0.08980796 0.054304577 -0.05672452 -0.11333885 -0.07816604 0.026180437 0.10859817 -0.027219491
-0.06801812 -0.07412403 -0.015318263 -0.12402083 -0.12393954 0.10953365 -0.07405192 -0.0368225
-0.031177318 -0.10788295 -0.020721387 0.038909215 -0.04907601 -0.012478708 0.00045364664 -0.1316734
0.08874749 0.09935005 0.08248222 -0.043525457 0.06614875 -0.11669302 -0.033249803 -0.02831936
-0.039363287 0.056403425 -0.053280756 -0.012025624 -0.04464046 -0.12676665 -0.029758446 -0.11640818
0.061336264 0.055156097 0.10022797 -0.05897781 0.011320607 0.028375324 0.1283421 0.11693375
-0.060192913 -0.1030376 -0.10950352 -0.058397695 0.11270748 0.048377518 0.12707555 0.09736036

conv2.bias f4 [32]
00000000: 0cd5 e8bd 9816 cebd 52b7 2ebd 3d01 903c
00000010: 16ce 7fbd 6ae0 16ba 6dd3 9dbc 019f f73d
00000020: 161e 84bd 1685 e53d 3513 c3bd 3255 d6bd
00000030: 39b9 2e3d f8fe 8bbd 8d56 8b3d 418d 8bbd
00000040: be36 db3d edd4 003e 228b b73b ca45 163d
00000050: d6c0 043e f0e4 973d c304 e2bd 4a89 883a
00000060: a3bb d9bd 246b c93d 9732 e6bc 3d24 88bb
00000070: 8351 a9bd fe49 7bbd 5960 453c c027 e73d
-0.113687605 -0.10062903 -0.042655297 0.017578715 -0.0624524 -0.0005755486 -0.019265855 0.120908745
-0.06451051 0.11207025 -0.09525148 -0.104654685 0.04265711 -0.06835741 0.068036176 -0.068140514
0.107038006 0.12581225 0.0056013027 0.03668765 0.12964186 0.07416713 -0.110360645 0.0010416892
-0.10631492 0.098348886 -0.028100295 -0.0041547106 -0.082675 -0.06134986 0.012046897 0.112868786

conv3.weight f4 [64, 32, 2, 2]
00000000: 102f 37bd cafa 243c 8a99 a33d 5e44 a83d
00000010: 089d b9bc d5c0 9b3d 068c ed3c 5945 9c3d
00000020: 6a63 9a3a ca94 95bd fbb5 cfbc b54e f43c
00000030: cc1c 253d 117b c6bd 9bc6 843d 30ec abbd
00000040: cd03 563d 49d2 b73d 3d29 b83c e1b0 51bc
00000050: 2a33 413d d3f8 d2bc 0b4c 92bd 0910 86bd
00000060: 5029 133d 3ae9 783d 7347 2bba d092 b9bd
00000070: 8d84 afbd 56a1 8ebc fcd1 413d fd8d 6abd
00000080: 51a5 ad3c a54c 51bd 9c7b 8e3d e39d d2bc
00000090: bc32 a8bc 9420 a2bd 3315 a6bd 6404 a03b
000000a0: e705 7b3c 9938 563d fcf1 9cbd ce2a c03c
000000b0: 2033 51bc ce5e 543d 33b7 fbbc 0adf 0a3d
000000c0: f923 0b3d 4c2f 373d f931 06bd b42e fb3c
000000d0: 98ee a8bc 945b e83c 0e40 6abd e082 86bd
000000e0: 9b99 92bd 1013 55bd c5d3 2abd b599 283c
000000f0: f861 9ebc 9119 4ebd 00a5 423a 48a9 e4bc
00000100: ba81 763d 06d6 86bd 7095 edbc 0704 47bd
00000110: 9e03 193c f0de c83b 8391 7fbb a4bc b43d
00000120: dcbf 0ebd e094 59bc d49f b13c ba0d 953d
00000130: 1001 873d b458 793c 353b 14bd 8faa 063d
00000140: 918d 813d 2a28 2c3c 6552 5e3d 2d8c a83d
00000150: ef47 3dbd 0738 6bbc 3352 9dbd 3353 d23c
00000160: ef66 773d e4a0 79bc 8148 733c 4d85 023d
00000170: 47ab 703b 6755 9c3d a97a a73c e164 a2bd
00000180: e9b5 9cbd 873b abbd f4b2 8c39 35df 593d
00000190: 6297 b3bc 49fb 8b3d 6992 c0bc 3036 2c3c
000001a0: 106d a73d a32c 453d 18b7 3dba 1c45 b73d
000001b0: e5ca 61bd 38b4 043d 6af7 603d df96 59bd
000001c0: d259 afbd 983b d43c c6bc 11bd d3b2 3fbd
000001d0: a46d 8c3c 6b0d 82bd 9c24 a03d 0f62 afbb
000001e0: 34e3 e7bc c48f 9a3d ad03 c33c f6f6 9c3c
000001f0: a6d7 30bd 90a9 ae3d 6041 fbbc 2903 983d
00000200: 40e7 d4bb ba9c 353d 422d 6a3d d860 63bd
00000210: c84c 71bd 7100 b3bd e303 713d 87eb b33d
00000220: 6a50 04bd ab51 31bd 0cb4 243c 857e 6a3d
00000230: 5cba b23c a8e7 96bc 452f 7bbd 9026 b23d
00000240: 1076 6abd 37eb aebd a05d 23bd d000 dc3c
00000250: 0491 063d 0efd 0b3d bd61 52bd cfce bbbc
00000260: c3fd 20bd 1752 2fbd 6e09 a3bd 8acf ed3c
00000270: 0493 d2bc 723b aebd b46b 67bd 7737 38bd
00000280: 852b 1cbd 88b4 5fbd 82b1 a4bc a6a3 2a3d
00000290: 6080 92bd 801c f8bb b6c5 f8bc 6bcf 0fbd
000002a0: b8c7 a0bc 7c71 19bd fe77 d2ba d8c1 58bd
000002b0: 2c50 893c 1f33 a63d bc73 8c3d 0c78 c2bc
000002c0: 5c2e df3c a819 abbd 1858 8d3d 0410 9dbd
000002d0: 7dc3 a1bd fc7c a2bd 8fee b2bd 76c8 c93c
000002e0: 4078 bfbc 5c4e ad3c f472 3fbc 24c2 063c
000002f0: 3fcc 02bd afcb 56bd 388f 97bd c6ad 363d
00000300: baaa 3abd 1043 93bc ff61 1e3d 337c 4cbc
00000310: a490 b6bc f959 71bd 36e4 a4bd 8b1b 503d
00000320: 705d a3bc d6a6 633d 549b 8f3a 060b 1a3c
00000330: a86c a3bd 80c7 ff3a b5f7 d0bc 3ce9 2dbd
00000340: 3094 a7bc 606a 973b 7af8 91bd 7c5f 153c
00000350: 72e9 7b3d 180a 8f3c e1ca ac3d f04b 493d
00000360: bec2 8ebd eb80 0ebd 93db d5bc 67c2 1b3d
00000370: e036 25bb 69aa 913d 5429 df3b 6586 4fbd
00000380: a5ba 04bd df99 96bd 48a6 c7bc b2ff 313d
00000390: 00bf 5f3a ee9e acbd 7481 aabd b1af 2a3d
000003a0: 92e1 9ebd 7662 90bd 7bc7 6abd 7335 c13d
000003b0: 68e3 cdbc de44 15bd 4f05 84bd 29ec 893d
000003c0: e8d4 69bc 98a0 8b3c 8ab5 853c 1390 0e3d
000003d0: 9ebc 673d b04c 963b 0f2a 8f3b 5e25 663b
000003e0: 09aa 8cbd 34b4 a5bc 3149 ac3d af6a 78bd
000003f0: 647c 64bd c4a0 b3bd 888a 2539 2ca4 a3bd
-0.044722617 0.010069558 0.079882696 0.08216165 -0.022657886 0.07605139 0.028997432 0.076304145
0.0011778895 -0.0730377 -0.02535533 0.029822687 0.040310666 -0.09691442 0.064831935 -0.083946586
0.05224972 0.089756556 0.022480601 -0.012798519 0.047167934 -0.025753414 -0.0714341 -0.06546027
0.03592807 0.060769297 -0.0006533779 -0.090612054 -0.08570204 -0.017410915 0.047319397 -0.057264317
0.021196993 -0.051098485 0.0695717 -0.025710052 -0.020532005 -0.0791637 -0.08109512 0.004883336
0.015321231 0.05230007 -0.07663342 0.02345791 -0.012768537 0.051848225 -0.030727005 0.033904113
0.033969853 0.04472284 -0.0327625 0.030661918 -0.020621583 0.02836398 -0.057189994 -0.06567931
-0.07158204 -0.052020133 -0.041705865 0.010290553 -0.019333825 -0.05031735 0.00074250996 -0.02791275
0.06018231 -0.065837905 -0.029001921 -0.048587825 0.009339241 0.006130092 -0.0038996644 0.08825043
-0.03485094 -0.0132801235 0.021682657 0.07278009 0.065919995 0.015218902 -0.036189277 0.0328775
0.0632583 0.010507623 0.054277796 0.082298614 -0.04621118 -0.01435662 -0.07681694 0.025674438
0.0604009 -0.015236113 0.014848829 0.031865407 0.0036723183 0.07633477 0.020444231 -0.079293974
-0.07651884 -0.08360963 0.0002683621 0.053191382 -0.02192277 0.06835038 -0.023507314 0.010510966
0.08175099 0.048138272 -0.0007237061 0.089487284 -0.055125136 0.032398432 0.054923452 -0.053122398
-0.08562054 0.025907323 -0.03558042 -0.0468014 0.017142124 -0.063502155 0.07819483 -0.0053522657
-0.028306581 0.07546952 0.023805464 0.019160729 -0.04317441 0.08528435 -0.030670822 0.07422478
-0.0064972937 0.04433892 0.057172067 -0.05551228 -0.058911115 -0.087403186 0.058841597 0.08785158
-0.03230325 -0.043290775 0.010052692 0.057249565 0.021817379 -0.01842101 -0.061324377 0.086987615
-0.0572415 -0.085409574 -0.03988421 0.026855856 0.03285314 0.03417688 -0.05136274 -0.022925762
-0.039304506 -0.042802896 -0.07960783 0.029029626 -0.025704868 -0.08507432 -0.056499198 -0.04497477
-0.03812744 -0.054615527 -0.020104174 0.041659974 -0.07153392 -0.007571757 -0.030367713 -0.03510992
-0.019626483 -0.037461743 -0.0016057489 -0.05291924 0.016761862 0.08115219 0.06858012 -0.023738883
0.027243786 -0.08354503 0.06901568 -0.0766907 -0.078986146 -0.07933995 -0.08736908 0.02463172
-0.02337277 0.021155529 -0.011685122 0.008224998 -0.031933066 -0.05244034 -0.07400364 0.044599317
-0.045572974 -0.017976314 0.038667675 -0.012480783 -0.022285767 -0.058923695 -0.0805134 0.050807517
-0.019942015 0.05557903 0.0010956326 0.009402042 -0.07979709 0.0019514412 -0.02550874 -0.042458758
-0.020456403 0.004620835 -0.07127471 0.0091170035 0.061501928 0.017460868 0.084371336 0.049144685
-0.06970738 -0.034790915 -0.026105678 0.038027193 -0.002520971 0.07112581 0.0068103466 -0.050665278
-0.03240456 -0.07353567 -0.024371281 0.04345674 0.0008535236 -0.08428751 -0.083254725 0.04167146
-0.07757868 -0.0705003 -0.057319146 0.09434023 -0.02513285 -0.03644263 -0.06446325 0.06734497
-0.014271952 0.01704435 0.016321916 0.03480537 0.056576364 0.0045867786 0.0043690274 0.0035117487
-0.06868369 -0.02022753 0.08412398 -0.060648616 -0.05578269 -0.08770898 0.00015787233 -0.07990298

conv3.bias f4 [64]
00000000: 8cf7 bc3d 9e35 a5bd 6bc5 053c e519 ae3c
00000010: 103f 3abd 3e1e 29bd 4e91 77bd cf61 d73c
00000020: 7cdd a83d b048 e63c 3270 9cbc 99c0 ea3c
00000030: 35d3 7abd 6b9b 3ebd 6a48 c73c cd18 a73d
00000040: 618a 883b 3ea4 dabc d2d5 6e3c cc9a aebd
00000050: 60f0 5c3d 50c3 6abd 7aaf f3bc 683c 8dbd
00000060: 9579 0e3d d20d 08bd 2ce2 453b c63c 56bd
00000070: a38d 5f3d 529a 87bd b569 9bbd 2e01 a6bd
00000080: e0e9 a43d 42bf 263d c387 7cbd 6490 cfbc
00000090: 57cc 843d 1357 c43c 67aa b33d 8b6f 46bc
000000a0: 234b a3bb 87e0 8d3d 80d1 ecb5 61e8 a4bd
000000b0: 9691 a7bc f717 803d 4ee3 363d a079 21bc
000000c0: 3a7a b6bd fea4 953d 4721 b9bc a549 aebc
000000d0: e6fa b23d 67bb 523d f4fd ce3c a390 083d
000000e0: 6f93 b73b da92 723b 9137 51bd 9dcf 113d
000000f0: 5e06 253d b314 523d d553 47bd b548 c53b
0.09226903 -0.08066867 0.008164744 0.021252582 -0.045470297 -0.041288607 -0.060441308 0.026291756
0.0824537 0.028110832 -0.019096468 0.02865629 -0.06123658 -0.046534937 0.024326522 0.08159027
0.0041668867 -0.026689645 0.014577346 -0.08525619 0.053940177 -0.05731517 -0.02974676 -0.06896287
0.03478392 -0.033216305 0.0030194623 -0.05230405 0.054578435 -0.06621231 -0.075885214 -0.08105694
0.080524206 0.04070974 -0.06165291 -0.025337406 0.06484287 0.023967301 0.08772736 -0.012111555
-0.004983322 0.06927591 -1.7644343e-06 -0.08052135 -0.020455163 0.06254571 0.04465037 -0.009855658
-0.089100316 0.073068604 -0.022598876 -0.02127535 0.08739261 0.051448252 0.025267579 0.03334106
0.0056022923 0.00370138 -0.051078383 0.035598386 0.040289275 0.05128927 -0.048663933 0.0060206302

fc.weight f4 [1, 576]
00000000: 58de 31bb ed17 c5bc db08 1c3c 42df f03c
00000010: 0b5a 333c 5ec0 48bc c816 253d 3d56 71bc
00000020: d57c c03c 7a21 93bc ce80 3e3c 5513 553c
00000030: 1774 1fbd 3495 263c 00f8 f2b7 0023 09bd
00000040: da4e d63c 7018 7f3b a708 20bc b714 cfba
00000050: d649 033d 6ec8 49bc 9bdc 9bbc e43c 3abc
00000060: c556 cabb bf5f ab3c 0027 febb f95a bb3c
00000070: 35b7 debc 0363 333c 5244 0b3d 55fd 3dbb
00000080: eea2 0e3d ad6a 843c 8991 1cbd d64e bebc
00000090: 0feb 033d 3fa9 02bc 62da 203d a2bd 31bd
000000a0: b12a cebc ecc7 fa3c 945d 173d 5d9f 23bd
000000b0: 2e23 503c ec34 38bd 45fe bbbc f01f ba3c
000000c0: 2203 01bd fb07 ad3a 88e8 20bc 9262 40bd
000000d0: d2ed f5bc c90b 683c f311 063d 020b 493b
000000e0: c8e8 2e3d fb33 cebc d0ea 3ebb 2c34 f1bc
000000f0: 2a0f 383d c97b 823c a6a8 bb3b 61c1 babc
00000100: 87be 03bd 3643 2d3d 5bef 8f3c e047 f9bb
00000110: 1065 1b3b 71b4 3c3c eeac 93bc a974 263d
00000120: 37fa be3a bed5 04bb b189 ba3c 2851 0cbd
00000130: fa92 923c 5fd8 afbc 6cc5 1fbd e705 94bc
00000140: e162 9abc e9ee 123d 36b2 253b cd13 fbbc
00000150: fefe 0bbd 56d8 c0bc f91c 2bbd 142e 94bb
00000160: 3f03 cdb9 8dfc 1fbd cb0a 423b b294 2fbc
00000170: 08d7 08bc 5fbf 19bd cf8b ae3c 3329 01bc
00000180: 5358 ef3b 5183 083a 0dae 0c3c d1cc 0f3d
00000190: 1941 a43b 0e7c 17b9 e8a8 423c 0ade adbc
000001a0: c0ff 9e3c 9ade 973a 7cf1 353d 4d85 543d
000001b0: 4588 463c dce9 64bc c631 3abc d509 013d
000001c0: f6ad 4ebb de43 993c d426 c6bc e95c f7ba
000001d0: fe6e 9c3c 36e0 f03c 70e8 17bb 8fb8 7f3b
000001e0: 907b 3fbc f08d 9ebc 1fb4 223d d662 90bc
000001f0: dc45 6fbc 3e67 f93c 5ecd fe3c 73d1 90bc
00000200: f8d7 96bc e1f4 0cbd c1a7 813c f363 33bc
00000210: c091 a9bc f31e 1fbd 8ffa 65bc 82ea 8c3c
00000220: b42b 00bd 0058 ca3c 92c5 b7bc 8f11 483d
00000230: 0ee1 aebc 4129 3e3d 2b44 1e3b b193 063d
00000240: dbbb a83b 26a0 14bc 8628 4d3b d87b e03c
00000250: ac25 0c3d 617e 3d3d 7620 483c 71e6 de3c
00000260: 27dd 203d 680c b1bc 0275 eabc d491 db3b
00000270: 8fb3 7fbc da91 13ba bc53 3b3c 5f80 23bc
00000280: 2d9b f5bc 8602 f83c ff53 a33c c6af 25bd
00000290: a470 20bd 33f6 afbb 3e04 cdbc 05d2 073d
000002a0: 8ae2 1a3d 92eb dd3c 394d 0c3d 3011 e83c
000002b0: 08f4 fe3c d681 a1ba aec4 023d da92 563c
000002c0: b7ba b53c eff0 abbc 6ed5 963c bf86 0fbd
000002d0: 9c3d b939 c6ce b3bc 3208 a63b 0f2e 0c3b
000002e0: 53cb de3b 047c 603d 7561 28bd b949 e7bc
000002f0: 9865 753c 2319 f5bc 8bac f2bc d354 dabc
00000300: 44c4 f53c 0b7c f5bc 0a13 15bd 1e2c dd3c
00000310: 899d f3bc 776a b5bb fec0 cdbc 540a 4a3c
00000320: 7519 133d 2330 cebc a311 f8bc d815 8f3c
00000330: 4b3c cfbc 500b 833c c2c4 d23c a7e9 143d
00000340: 9680 443c a6ac 343d 35b0 a3bb f532 fe3c
00000350: 1a22 febb 9523 7dbc baf0 a03c 2509 e83c
00000360: 810c a43c 86cf 2a3d d880 713c f284 d43c
00000370: a977 243d 1b92 9ebc bf98 053b db42 153d
00000380: ddb8 d23a eb1f 1d3d 385a ed3c c74c 5bbc
00000390: 93db 193d 5839 f7bb 786c 113d 16f3 223d
000003a0: 3e5f 0e3d 350b 263d ebb5 f5ba 9744 24bd
000003b0: 72d4 e93c 3228 fbba 6793 bdbc 129d 2dbc
000003c0: 7d50 f4bc e746 4c3c 0c89 2ebd d056 863c
000003d0: 0e9a 2bbd 1f51 b7bc 5371 cb3c 52e5 28bc
000003e0: 962e db3c 2865 f33c bc13 85bc 8c43 30ba
000003f0: 8974 b2bc 15f0 94ba d680 cc3c 9463 963a
-0.0027140584 -0.02405926 0.009523596 0.029403333 0.010946761 -0.012252895 0.04030493 -0.014730033
0.023497025 -0.017960299 0.011627389 0.013005097 -0.03892907 0.010167409 -2.8964132e-05 -0.033480644
0.026160646 0.0038924478 -0.009767688 -0.001579902 0.032052837 -0.012315853 -0.019026091 -0.0113670565
-0.0061748945 0.020919679 -0.007756114 0.022870528 -0.02718697 0.010948899 0.034000702 -0.002899011
0.03482335 0.016164148 -0.03822473 -0.023230951 0.03220659 -0.007974922 0.039270766 -0.04339374
-0.025166841 0.030612908 0.036954477 -0.039946903 0.0127037 -0.044972345 -0.022948394 0.022720307
-0.03149713 0.0013201231 -0.009821065 -0.046969004 -0.030020628 0.014162966 0.03273196 0.0030676727
0.042702466 -0.02517127 -0.0029131658 -0.029443823 0.044936337 0.015928166 0.0057268916 -0.022797288
-0.032164123 0.042300425 0.017570188 -0.007607445 0.002371136 0.01151763 -0.018026795 0.0406386
0.001457042 -0.0020269002 0.022770735 -0.034257084 0.01789235 -0.021465478 -0.039006636 -0.01806922
-0.018845977 0.035872374 0.0025283224 -0.03064909 -0.034178726 -0.023540657 -0.041775677 -0.0045220945
-0.00039103066 -0.03905921 0.0029608484 -0.010716604 -0.008352049 -0.03753602 0.0213069 -0.007883358
0.0073042302 0.0005207556 0.008586419 0.035107438 0.005012643 -0.00014446696 0.011881091 -0.02122404
0.01940906 0.0011586726 0.04441975 0.051884938 0.01211745 -0.013971772 -0.011364406 0.031503517
-0.0031536794 0.01870912 -0.024188437 -0.0018872294 0.019095894 0.029403787 -0.0023179315 0.0039019918
-0.011687174 -0.01935479 0.039722558 -0.017625254 -0.014604058 0.030444738 0.031103786 -0.017677998
-0.018413529 -0.034413222 0.015827062 -0.010949123 -0.020699382 -0.038847875 -0.014036789 0.017201666
-0.03129168 0.024700165 -0.022433076 0.04884487 -0.021347549 0.04642606 0.0024149518 0.032855693
0.0051493472 -0.0090713855 0.0031304671 0.027402803 0.034215614 0.046263102 0.012214771 0.027209492
0.039273407 -0.021612361 -0.028620247 0.0067007337 -0.015606775 -0.00056293386 0.011433538 -0.0099793365
-0.02998122 0.03027464 0.019937513 -0.040450834 -0.039169922 -0.0053699254 -0.025026437 0.033159275
0.0378137 0.027089868 0.034253333 0.028328508 0.031122223 -0.0012322019 0.03192585 0.013096536
0.02218376 -0.02098891 0.018412318 -0.035040613 0.00035331852 -0.021949183 0.005066895 0.0021389758
0.0067991405 0.05480577 -0.041108567 -0.028233396 0.014977835 -0.029919213 -0.02962329 -0.026651775
0.030000813 -0.029966375 -0.03639511 0.026998576 -0.029738205 -0.0055363732 -0.02511644 0.012331564
0.03591295 -0.025169438 -0.030281847 0.01746647 -0.025297305 0.015996605 0.025728587 0.03635564
0.011993548 0.044109963 -0.0049953707 0.031030158 -0.00775553 -0.015450378 0.019646037 0.028324673
0.020025494 0.041701816 0.014740191 0.0259423 0.04015318 -0.019356778 0.0020385233 0.03644071
0.0016076822 0.038360517 0.028973684 -0.013385004 0.037562918 -0.0075446777 0.035503834 0.039782606
0.0347588 0.04053803 -0.0018746232 -0.040104475 0.028543685 -0.0019161759 -0.023141576 -0.0105965305
-0.029823536 0.012468076 -0.042611167 0.016398817 -0.041894965 -0.022377549 0.02483431 -0.0103085805
0.026755612 0.029711321 -0.016244762 -0.00067239325 -0.021784084 -0.0011363054 0.024963778 0.0011473768

exp_avg f4 [16, 8, 2, 2]
00000000: 9576 00be c80e 04be 5f06 00be 1dba 03be
00000010: 5e9e 003d 45e7 fe3c 9f51 023d c31d 003d
00000020: 7adf dc39 76e7 053a 8275 dd39 708e 093a
00000030: c7d9 a93b 3914 ac3b bfca a93b d404 ac3b
00000040: f886 81bb b6ee 79bb ccec 81bb bf6b 79bb
00000050: 9e18 fb3b d016 033c 8273 ff3b 422c 063c
00000060: ae2d ba3b ae2d ba3b e8ab ba3b e8ab ba3b
00000070: 0000 0000 0000 0000 0000 0000 0000 0000
00000080: e830 ecbd e723 f2bd d4f2 ecbd 2248 efbd
00000090: a007 cd3a e0e3 dc3a c00b aa3a 5024 973a
000000a0: 80d7 88b9 cdb1 b0b9 d795 98b9 9042 99b9
000000b0: 9cc3 8c3b 62f8 8c3b f253 8b3b 7313 8d3b
000000c0: 9462 aabb bcbc adbb caee aabb a2e2 abbb
000000d0: ff13 54bb c9cb 42bb 41ae 55bb 27f2 46bb
000000e0: c69a 643b daa7 643b d77b 623b 9ab3 623b
000000f0: 0000 0000 0000 0000 0000 0000 0000 0000
00000100: c0d7 e3b8 389c 0d39 a016 503a 0cf3 833a
00000110: 722c 553c 16cb 4b3c f28d 583c cd4b 573c
00000120: 71d8 7839 ad32 ad39 96b7 9b39 16a1 b239
00000130: 7e36 433a 78ec 5f3a 74bf 3a3a a47e 4a3a
00000140: 08b4 6eb9 733b e2b8 e4e6 e8b8 c851 e8b7
00000150: 16fa b53b e511 b83b 1e08 bc3b 0302 ba3b
00000160: f288 903a eb66 8e3a d08f 8b3a c86d 893a
00000170: 0000 0000 0000 0000 0000 0000 0000 0000
00000180: c188 063d 80e9 083d ca04 073d 78ed 083d
00000190: e46d 5e3e c8fb 593e 9463 5e3e 58c6 593e
000001a0: d535 153c 92b1 133c 2bbe 153c 90d0 133c
000001b0: 4176 ec3b 0850 e63b 7267 ed3b af9e e53b
000001c0: 1739 4e3c 2a00 4f3c 83f1 4e3c da5c 4f3c
000001d0: cae8 a63d b6b3 a43d 35f1 a63d 8ccf a43d
000001e0: 50d2 763c dc7e 6f3c 50d2 763c dc7e 6f3c
000001f0: 0000 0000 0000 0000 0000 0000 0000 0000
00000200: 0000 0000 4eb5 f639 68ff 9037 cfd6 003a
00000210: 0000 0000 4811 993b 67a5 eaba 805f 3c3b
00000220: 0000 0000 791e 1a39 676c 94b8 497f b538
00000230: 0000 0000 faaa 1539 e81e 04b9 89f4 1238
00000240: 0000 0000 0d00 3239 145e 12b8 4a0e 1739
00000250: 0000 0000 d152 dc3a 3991 0bba e1ec 963a
00000260: 0000 0000 827a ae39 bf1f 1cb9 c96a 4239
00000270: 0000 0000 0000 0000 0000 0000 0000 0000
00000280: 4f98 26be e27d 1fbe 7321 29be 4cf9 25be
00000290: 6a09 3d3d 2c28 403d 6d1e 3c3d ac82 3c3d
000002a0: 5ee1 49ba 5511 49ba 19cd 3eba 9710 3fba
000002b0: a71b 323c 4054 2f3c db54 323c 4b3f 303c
000002c0: 1212 3fbc 2a1d 3dbc 63b7 3dbc 665a 3cbc
000002d0: 700f 5d3c 6445 593c a1e4 5d3c ba98 5b3c
000002e0: 15f3 263c b0cd 263c a7f2 263c 18d1 263c
000002f0: 0000 0000 0000 0000 0000 0000 0000 0000
00000300: f024 43bd 5c27 49bd c819 3fbd 45e3 49bd
00000310: e5ae cb3b 6191 b63b 8fb3 913b c98f 803b
00000320: bcd3 c9b8 c0f5 c636 b878 5fb8 7854 4cb8
00000330: 6697 f03a f2ba 013b a9ec ed3a 4ecf f63a
00000340: 0230 0abb 238c 01bb 0406 05bb 56e1 03bb
00000350: 0c8d aebb 829c a3bb fd9d c0bb 08ca b6bb
00000360: 1035 d23a 31a3 d23a f4ea c03a 1159 c13a
00000370: 0000 0000 0000 0000 0000 0000 0000 0000
00000380: 69e1 3b3b 1ad0 563b 3deb 5e3b 9d49 503b
00000390: 1b81 633c e9b9 823c 40b2 653c d0cd 823c
000003a0: 9fc4 1a3a 4858 233a de29 183a d7cb 253a
000003b0: 52e0 323a b120 193a 08b2 2c3a 5c52 1c3a
000003c0: 218d fb39 f717 233a 7e3d f239 7a16 2b3a
000003d0: 0ebc b73b ebaa cf3b c0ff b63b fd79 cd3b
000003e0: 7c3e 903a 7804 9c3a a123 903a 9ce9 9b3a
000003f0: 0000 0000 0000 0000 0000 0000 0000 0000
-0.12545235 -0.12896264 -0.1250243 -0.12863965 0.03140103 0.031116137 0.03181612 0.031278383
0.00042128173 0.0005108038 0.00042239955 0.000524736 0.005183432 0.005251434 0.00518164 0.005249599
-0.003952857 -0.0038136668 -0.003964996 -0.0038058606 0.0076628467 0.008001044 0.007795752 0.008189263
0.005681715 0.005681715 0.0056967624 0.0056967624 0.0 0.0 0.0 0.0
-0.115327656 -0.11823254 -0.11569753 -0.1168368 0.0015642531 0.001685258 0.0012973472 0.0011531208
-0.000261005 -0.00033701808 -0.0002910334 -0.00029232027 0.0042957794 0.0043020705 0.0042519504 0.004305297
-0.0051997397 -0.00530204 -0.005216454 -0.0052455226 -0.0032360551 -0.0029723516 -0.0032605084 -0.0030356736
0.0034882291 0.0034890086 0.0034558678 0.0034591914 0.0 0.0 0.0 0.0
-0.0001086439 0.00013505004 0.00079379417 0.001006694 0.013011085 0.012438556 0.013217436 0.013140631
0.00023731754 0.00033034888 0.00029700686 0.00034070824 0.00074467796 0.00085420115 0.00071238657 0.00077245594
-0.00022764516 -0.00010787593 -0.00011105629 -2.7694638e-05 0.005553494 0.0056173676 0.0057382723 0.0056765093
0.0011027141 0.0010864412 0.0010647718 0.0010484988 0.0 0.0 0.0 0.0
0.032845262 0.033425808 0.03296355 0.033429593 0.21721607 0.21287453 0.21717674 0.21267068
0.009107073 0.009014504 0.009139578 0.009021893 0.0072162454 0.0070285834 0.0072449977 0.007007442
0.0125868535 0.012634316 0.012630823 0.012656415 0.0814987 0.0804209 0.08151475 0.08047399
0.015064791 0.014617648 0.015064791 0.014617648 0.0 0.0 0.0 0.0
0.0 0.0004705586 1.728507e-05 0.00049148215 0.0 0.0046712495 -0.0017902077 0.0028743446
0.0 0.00014697936 -7.0773815e-05 8.654461e-05 0.0 0.00014273441 -0.00012600014 3.5036854e-05
0.0 0.00016975422 -3.489673e-05 0.00014405805 0.0 0.0016809349 -0.0005324069 0.0011514687
0.0 0.00033279142 -0.00014889146 0.00018541062 0.0 0.0 0.0 0.0
-0.16269039 -0.15575364 -0.16516666 -0.1620838 0.046151556 0.04691331 0.045927454 0.046023056
-0.0007701124 -0.0007670124 -0.0007278487 -0.0007288544 0.010870851 0.010701239 0.010884489 0.010757278
-0.011662023 -0.011542598 -0.011579367 -0.011496162 0.01349245 0.013261173 0.013543279 0.013403112
0.010189791 0.010180876 0.010189689 0.010181688 0.0 0.0 0.0 0.0
-0.04764265 -0.0491098 -0.046655446 -0.049289007 0.0062159174 0.0055715297 0.004446454 0.0039233905
-9.6238655e-05 5.929469e-06 -5.327977e-05 -4.8716058e-05 0.0018355667 0.0019795266 0.0018152195 0.0018830092
-0.0021085744 -0.0019767366 -0.0020297775 -0.0020123324 -0.0053268727 -0.0049930224 -0.0058782087 -0.005578283
0.0016037542 0.0016070363 0.0014718459 0.0014751275 0.0 0.0 0.0 0.0
0.002866829 0.0032777847 0.0034014725 0.0031782158 0.013885762 0.01595779 0.014019549 0.01596728
0.00059039326 0.00062311115 0.00058045785 0.0006324625 0.00068235875 0.0005841358 0.0006587808 0.00059632
0.000479796 0.00062215276 0.00046203652 0.00065264816 0.0056071347 0.0063375137 0.005584687 0.0062706457
0.001100495 0.0011903187 0.0010996946 0.0011895183 0.0 0.0 0.0 0.0

exp_avg_sq f4 [16, 8, 2, 2]
00000000: 12e0 123b 8c77 213b e8fc 113b a57e 1d3b
00000010: 8fdc 1f3b 5e3e 1f3b c54a 203b 1d7c 1f3b
00000020: 797e 0337 bd7e 0237 6c9d 0337 5315 0337
00000030: 5fe3 ae37 5e8a ae37 1652 af37 1cb0 af37
00000040: 51e9 8d36 2780 8836 675c 8e36 8458 8a36
00000050: 0e1e a039 c356 a239 2c84 a039 7877 a239
00000060: d1dc ba37 d1dc ba37 d79a ba37 d79a ba37
00000070: 0000 0000 0000 0000 0000 0000 0000 0000
00000080: 9b3a 173b 1e3f 223b 7f59 183b 413f 1d3b
00000090: 4ea3 393b a1dd 383b 8f40 3c3b e58e 3a3b
000000a0: bab8 a036 1944 a136 9fad a136 8f6c a136
000000b0: 6ec7 7f37 8f30 8237 9ed7 7f37 6911 8237
000000c0: 62fb 7136 b4c1 6f36 a04c 7436 e08c 6c36
000000d0: adf7 9039 05da 9139 d0ed 9139 351b 9239
000000e0: 90ba d337 584f d437 b335 d537 8608 d537
000000f0: 0000 0000 0000 0000 0000 0000 0000 0000
00000100: c6d5 8437 89d4 8537 5968 9d37 3019 9137
00000110: bed0 2639 195e 2939 8adb 2339 e427 2339
00000120: c034 d834 f7bc e134 e990 b634 355a b934
00000130: 7bb1 7135 2430 7b35 8860 6635 904e 6635
00000140: 80fa b334 eb32 bf34 0601 9b34 4870 9e34
00000150: 1073 8737 39bb 8837 972f 7c37 c2ac 7f37
00000160: c530 ab35 9331 ad35 9686 a335 ea20 a635
00000170: 0000 0000 0000 0000 0000 0000 0000 0000
00000180: 2a87 9939 4231 a239 eba1 9939 bb48 a239
00000190: 9b4a c73c 94cd d23c 70fd c63c 56d9 d23c
000001a0: b088 9838 4cc2 a138 90d6 9838 a4a6 a138
000001b0: ab36 2039 36fc 2939 4f2e 2039 e0e5 2939
000001c0: 836f 0e38 e781 1738 66f2 0e38 146c 1738
000001d0: 3311 553b f5ee 5f3b 9dfd 543b 3e1f 603b
000001e0: ded1 3c39 9492 4739 ded1 3c39 a292 4739
000001f0: 0000 0000 0000 0000 0000 0000 0000 0000
00000200: 0000 0000 a9a7 0f34 f0d3 d033 1ede 6534
00000210: 0000 0000 fe64 4c37 fc85 9836 0b44 6437
00000220: 0000 0000 8703 d132 6cec 1632 6212 0933
00000230: 0000 0000 1a44 6533 03b7 bb32 0f83 8633
00000240: 0000 0000 45ea 7f32 a740 0332 6953 b932
00000250: 0000 0000 7054 c235 cb66 0d35 ef8f d035
00000260: 0000 0000 8ad2 bb33 7e39 1433 17b1 c633
00000270: 0000 0000 0000 0000 0000 0000 0000 0000
00000280: 50b6 813b c029 5f3b d07f 863b 1f1b 7a3b
00000290: 92cd 713c ed9c 733c 8da7 713c 66ae 723c
000002a0: 8376 7f38 90f8 7a38 f853 7f38 0b12 7b38
000002b0: 1069 2739 9632 2439 67b4 2739 05a1 2439
000002c0: 7327 e437 259d e137 7f38 e237 0037 e137
000002d0: cc34 1d3b 8d0a 1c3b 4151 1d3b 5b40 1c3b
000002e0: 008b 1a39 cb87 1939 b78c 1a39 4681 1939
000002f0: 0000 0000 0000 0000 0000 0000 0000 0000
00000300: ee25 fb39 7ef3 113a f4d4 f639 3055 133a
00000310: 1c7c 3e3a 8fbd 393a b50b 3d3a 0d6e 3a3a
00000320: a1d3 9c35 9d99 9e35 59f8 a135 d327 a435
00000330: f398 3c36 34cf 4736 1a49 4636 8764 4b36
00000340: af94 8235 4044 6935 0449 7635 f333 7235
00000350: 4ac5 6e38 fef1 6f38 112c 7b38 5577 7c38
00000360: 08fa b736 8b6d b836 a054 b936 8dcc b936
00000370: 0000 0000 0000 0000 0000 0000 0000 0000
00000380: 01b6 0536 4d2e b736 4dba 5d36 d676 b736
00000390: 688f ea38 0300 0939 bf68 ea38 e396 0939
000003a0: 9b3e 8a35 23e5 8b35 2f2d 8835 9d89 8a35
000003b0: 0828 0536 3f90 0236 d640 0436 3326 0236
000003c0: 0ae6 fd34 0dd5 0635 d008 f734 9536 0435
000003d0: dd27 e837 5fe3 f737 cb2a e737 5797 f737
000003e0: 6491 b235 ffda ba35 d178 b235 71bb ba35
000003f0: 0000 0000 0000 0000 0000 0000 0000 0000
0.0022411388 0.0024637906 0.0022275988 0.0024031785 0.0024392938 0.0024298648 0.0024458629 0.0024335452
7.837655e-06 7.778112e-06 7.844861e-06 7.813173e-06 2.0848294e-05 2.0806849e-05 2.089985e-05 2.0943633e-05
4.229289e-06 4.0680347e-06 4.242687e-06 4.123025e-06 0.0003053997 0.0003096369 0.00030616054 0.0003098806
2.2275754e-05 2.2275754e-05 2.224503e-05 2.224503e-05 0.0 0.0 0.0 0.0
0.0023075703 0.002475686 0.0023246703 0.0023994 0.0028326097 0.0028208273 0.0028725003 0.002846652
4.7898766e-06 4.8061015e-06 4.818386e-06 4.810812e-06 1.5245618e-05 1.551982e-05 1.5249387e-05 1.5505315e-05
3.6058123e-06 3.5726525e-06 3.6403435e-06 3.524874e-06 0.00027650353 0.00027818992 0.0002783374 0.0002786756
2.5240035e-05 2.5309317e-05 2.5416584e-05 2.5395548e-05 0.0 0.0 0.0 0.0
1.5835172e-05 1.5953805e-05 1.876445e-05 1.7297076e-05 0.00015908756 0.0001615215 0.00015626676 0.00015559752
4.0271516e-07 4.2047006e-07 3.4005578e-07 3.452457e-07 9.0037764e-07 9.357484e-07 8.582215e-07 8.5796e-07
3.352361e-07 3.561357e-07 2.8871744e-07 2.951149e-07 1.6146834e-05 1.6299646e-05 1.5031451e-05 1.5239408e-05
1.2754687e-06 1.2903932e-06 1.2183616e-06 1.2377543e-06 0.0 0.0 0.0 0.0
0.0002928314 0.00030935748 0.00029303072 0.00030953236 0.024327567 0.025732793 0.02429077 0.0257384
7.273385e-05 7.713269e-05 7.28789e-05 7.7081175e-05 0.00015279154 0.00016211052 0.0001527604 0.00016202731
3.395929e-05 3.6122186e-05 3.408119e-05 3.610186e-05 0.0032511472 0.003416953 0.0032499798 0.003419831
0.00018007259 0.00019032724 0.00018007259 0.00019032744 0.0 0.0 0.0 0.0
0.0 1.3378907e-07 9.724306e-08 2.1408093e-07 0.0 1.2182862e-05 4.545551e-06 1.36057015e-05
0.0 2.4332406e-08 8.784905e-09 3.1914517e-08 0.0 5.3380155e-08 2.185289e-08 6.263701e-08
0.0 1.489622e-08 7.639904e-09 2.1574765e-08 0.0 1.4478701e-06 5.2676177e-07 1.5539098e-06
0.0 8.746163e-08 3.4511224e-08 9.252306e-08 0.0 0.0 0.0 0.0
0.003958501 0.0034051985 0.004104592 0.0038163138 0.014758484 0.014868957 0.01474942 0.014812088
6.090711e-05 5.9836137e-05 6.087494e-05 5.9859867e-05 0.000159655 0.00015659104 0.00015993566 0.00015700243
2.7198088e-05 2.6895266e-05 2.6967607e-05 2.6847702e-05 0.0023987768 0.002381 0.002400473 0.002384207
0.00014738366 0.00014641804 0.00014739005 0.00014639375 0.0 0.0 0.0 0.0
0.0004790271 0.0005567594 0.0004707944 0.0005620299 0.00072664185 0.00070854364 0.00072115223 0.0007111736
1.1684498e-06 1.1816625e-06 1.2067713e-06 1.2230543e-06 2.8103211e-06 2.977392e-06 2.954685e-06 3.0307872e-06
9.729027e-07 8.689858e-07 9.1748393e-07 9.022762e-07 5.692736e-05 5.7207413e-05 5.9884103e-05 6.019262e-05
5.4829325e-06 5.49638e-06 5.5232813e-06 5.5372425e-06 0.0 0.0 0.0 0.0
1.9924485e-06 5.459215e-06 3.3040008e-06 5.4676593e-06 0.00011184701 0.00013065343 0.000111775 0.00013121548
1.0300022e-06 1.0422995e-06 1.014594e-06 1.0321852e-06 1.9841846e-06 1.9455472e-06 1.9707272e-06 1.9393744e-06
4.7292298e-07 5.022892e-07 4.6013747e-07 4.925326e-07 2.7675118e-05 2.9550572e-05 2.7557273e-05 2.9515168e-05
1.3304348e-06 1.3921816e-06 1.3297196e-06 1.3912633e-06 0.0 0.0 0.0 0.0

exp_avg f4 [16]
00000000: 0702 54bc 0ebc 00bc cb14 1cbb ffff 07bd
00000010: ebcd dcb9 3d75 bdbc 3397 5bbb fa12 31bb
00000020: 342a 003b d8e0 a9bb 64a4 8fba ef94 2abb
00000030: 8830 2ebc 1a1a ca3a 62bf 793b 6008 443a
-0.0129399365 -0.007857336 -0.0023816105 -0.03320312 -0.0004211509 -0.023127193 -0.003350687 -0.0027019368
0.0019556405 -0.005184274 -0.0010959026 -0.0026028713 -0.010631688 0.0015419156 0.0038108458 0.00074780546

exp_avg_sq f4 [16]
00000000: 31b2 f038 8c64 0939 0049 d636 31b6 803a
00000010: b924 0035 8400 463a 22a8 ef37 47dc f036
00000020: f599 cb36 de3a 3737 a467 6f38 2894 4939
00000030: d20a 7c38 c532 063a d769 d938 6efe 273a
0.000114772825 0.00013102795 6.3861953e-06 0.0009819922 4.7737154e-07 0.00075531774 2.8569313e-05 7.178201e-06
6.0677944e-06 1.0921356e-05 5.7078563e-05 0.00019224046 6.009156e-05 0.00051192596 0.000103670805 0.00064084574

exp_avg f4 [32, 16, 2, 2]
00000000: db08 17bb c831 35bb 2580 20bb 46d1 34bb
00000010: 3579 1d3a 186b 033a 1e7f a939 b884 a039
00000020: 750f 9fba beec d3ba ded9 b6ba b740 c0ba
00000030: d388 f0b9 c29b f0b9 29f5 9db9 d66b 90b9
00000040: 0000 0000 0000 0000 0000 0000 0000 0000
00000050: 35ec d93a 0549 a83b 5d81 c23a 0194 8d3b
00000060: 0bad bc3a 1110 bb3a 6c86 2c3a 8390 5d3a
00000070: 702e c937 d8ba feb7 80fc c436 4876 04b8
00000080: 851b f039 8329 b03a ef1e 073a 7f8f 9b3a
00000090: 40ae 9037 786c 1639 b0cb cb37 2c91 ce38
000000a0: 57ee 7bbb 5118 88bb 8980 71bb b952 7dbb
000000b0: 2591 883a 33cd 013b ee07 033a b9f6 c73a
000000c0: 58a3 0a3a 887f 2a3b ba5c a039 da5d 013b
000000d0: a05a b1bb 97ed b1bb 5940 a1bb e661 90bb
000000e0: 063e a0bb 4544 79bb 46fe 8ebb 97f3 73bb
000000f0: ab58 57bb ce21 53bb f774 34bb 89dd 22bb
00000100: 534e cbba 6c89 d4b9 b07c bcba 2ec7 d5b9
00000110: 288d 9fb9 20a7 ab38 3c1e 93b9 1c98 9339
00000120: 83f1 d3bb 5932 c5bb 0955 d5bb 6a2c cabb
00000130: ef55 75bc ad9c 73bc b23d 76bc 6984 72bc
00000140: 0000 0000 9dd4 9038 0000 0000 97e1 9038
00000150: e099 223c 1f0e 213c 9c5f 263c 5848 273c
00000160: 9a66 493b 90a6 743b 1acf 563b 3069 893b
00000170: f455 d6b9 d42f 4939 9a3f d9b9 3826 4f39
00000180: 2e0a 4439 0718 f535 d2f9 0539 21b7 0839
00000190: 5bcd 0bba e3b8 d3b9 41c0 0bba 4117 82b9
000001a0: 7a03 1fbc 692f 13bc 7090 1fbc e791 14bc
000001b0: cfbd c93b 2458 cc3b c767 d53b 1fba dc3b
000001c0: 508a 223c c3e8 213c 0472 233c 021c 293c
000001d0: 9a1d 02bd 9acd f7bc d67f 04bd 6112 fcbc
000001e0: 375e 5fbc d084 57bc a068 64bc 28a6 5abc
000001f0: 7e69 9fbc 8c27 95bc bcac a1bc c200 97bc
00000200: 97a9 9dbc 95cd 9bbc 4603 a1bc 8096 9abc
00000210: c85b a7bc 0567 a7bc c54b b4bc 5d3f afbc
00000220: 5a49 563b 064f 7c3b 4628 593b 9f54 873b
00000230: be07 133c 912a 163c 35ae 0c3c b8ed 0f3c
00000240: 0000 0000 0000 0000 3c90 6f35 2aa2 8635
00000250: e8dc 2fbd a81c 45bd 4469 41bd 39ce 53bd
00000260: 5ca2 33bd 26ee 35bd d9fd 40bd 7cfa 3ebd
00000270: 1ead 893a a8dd 433a 5e74 893a 9451 453a
00000280: 8c3a 2ebc 7960 35bc d20f 3cbc 40a9 43bc
00000290: a490 ac3a aa9c c13a 80ce ba3a 7a55 cc3a
000002a0: 4af1 983a 0def 343b e27a e23a c567 4e3b
000002b0: 31ac e5bc 1746 f3bc 7158 f8bc 177a 01bd
000002c0: b5a8 37bd 83a2 41bd 1967 45bd fc2c 4dbd
000002d0: 38cd a33c cbeb bd3c 8071 a83c 95c1 c83c
000002e0: e6d2 e03b 2c42 063c 9512 ea3b 4f2c 113c
000002f0: e4bb 5d3c cc8f 703c 525b 5d3c a274 793c
00000300: 9619 27bc 9006 1fbc c882 1fbc 5fd3 16bc
00000310: 2183 15bb 09fa 06bb 30bc 1abb e01e 08bb
00000320: 0281 3abc b431 34bc 48f1 31bc 521c 2cbc
00000330: c007 4bbc 5029 4abc 0b98 48bc 60f9 45bc
00000340: 0000 0000 eed5 3f37 2d5f 9137 689c 1938
00000350: b0c7 403a 70ab a03a b636 4b3a ff85 a33a
00000360: e569 17bb c592 07bb 41c9 0fbb 41e7 f7ba
00000370: 1535 3aba 0863 bbb9 e49d 33ba 7c99 b9b9
00000380: cb5a f435 6049 0133 41e7 6733 b08c 7d33
00000390: 9eb3 c5ba 1ca8 beba 4203 b4ba b9b7 a9ba
000003a0: 7292 93bc 7051 8ebc cac6 8fbc d7cb 8abc
000003b0: a287 873a e39f a83a 90b8 853a a4cb 9f3a
000003c0: 0d81 633b f74a 6b3b 9126 763b dd21 803b
000003d0: d848 3bbd 5907 36bd 7227 36bd 16ab 30bd
000003e0: 4558 cbbc 6659 c5bc ef70 c5bc c6b9 bebc
000003f0: 6c4f b6bc 65f2 afbc 8095 b2bc 2baa aabc
-0.002304605 -0.002764808 -0.0024490443 -0.0027590557 0.0006007136 0.00050132116 0.00032328902 0.0003061646
-0.0012135344 -0.0016168577 -0.0013950428 -0.0014667724 -0.0004587831 -0.00045892416 -0.00030128032 -0.00027546164
0.0 0.0 0.0 0.0 0.0016626181 0.0051356577 0.0014839579 0.004320622
0.0014394833 0.0014271756 0.000658131 0.0008452015 2.3982691e-05 -3.0366165e-05 5.87065e-06 -3.158141e-05
0.0004579687 0.0013440106 0.0005154451 0.0011868327 1.724728e-05 0.00014345523 2.4294335e-05 9.849886e-05
-0.0038441622 -0.0041532894 -0.0036850295 -0.0038654043 0.0010419233 0.0019806146 0.0004998435 0.0015256024
0.00052886223 0.0026015956 0.00030586665 0.0019739778 -0.0054124147 -0.0054299342 -0.004921001 -0.0044062017
-0.0048902063 -0.0038035077 -0.004363808 -0.0037224048 -0.0032859247 -0.0032216194 -0.0027535537 -0.0024851284
-0.0015511013 -0.00040538178 -0.0014380421 -0.00040774926 -0.00030432013 8.185045e-05 -0.0002806055 0.00028151355
-0.0064679994 -0.006017965 -0.006510381 -0.0061698454 -0.014974101 -0.014868897 -0.015029358 -0.014802077
0.0 6.9060574e-05 0.0 6.9084745e-05 0.009924382 0.009830027 0.010154631 0.010210119
0.0030731321 0.0037330724 0.003277725 0.0041934475 -0.000408813 0.00019186671 -0.00041436852 0.00019755296
0.00018695809 1.8260915e-06 0.00012776934 0.00013038192 -0.00053330295 -0.00040382807 -0.0005331077 -0.00024812858
-0.009705419 -0.008983471 -0.009739026 -0.009067989 0.00615666 0.006236093 0.0065126154 0.0067360546
0.009920672 0.009882155 0.009975914 0.010321619 -0.03176651 -0.030249406 -0.032348476 -0.030770482
-0.013633302 -0.013154224 -0.01394096 -0.013345279 -0.019459482 -0.018207334 -0.019735686 -0.018432979
-0.019245906 -0.019018928 -0.019654881 -0.018870592 -0.020429507 -0.020434866 -0.022008786 -0.021392519
0.003269753 0.003849925 0.0033135577 0.0041299607 0.008974014 0.009165422 0.008586456 0.008784704
0.0 0.0 8.9244327e-07 1.0030974e-06 -0.042935282 -0.04812303 -0.04721953 -0.05171034
-0.04385601 -0.04441657 -0.047117088 -0.0466256 0.0010503863 0.0007471689 0.0010486951 0.00075271097
-0.010634076 -0.011070364 -0.011478381 -0.011942208 0.0013165665 0.0014771421 0.0014252216 0.0015589439
0.001166859 0.0027608306 0.0017279054 0.0031494957 -0.028036209 -0.029696507 -0.03031561 -0.031610575
-0.044838626 -0.047274124 -0.048194025 -0.05009173 0.019995317 0.023183724 0.020561934 0.02450637
0.0068610786 0.008194488 0.0071433284 0.008860662 0.013533566 0.014682721 0.013510542 0.015225561
-0.010198971 -0.0097061545 -0.0097357705 -0.009205668 -0.0022813755 -0.002059581 -0.0023610704 -0.0020770356
-0.011383297 -0.010998178 -0.010860749 -0.010504799 -0.012391984 -0.012338951 -0.012243281 -0.012083381
0.0 1.14342965e-05 1.7329667e-05 3.6623707e-05 0.00073539745 0.0012258124 0.0007751988 0.0012475847
-0.002310389 -0.0020686847 -0.0021940025 -0.0018913524 -0.0007103247 -0.00035741203 -0.00068518356 -0.00035400304
1.8205841e-06 3.0101887e-08 5.3994203e-08 5.9034107e-08 -0.0015083437 -0.001454595 -0.0013733881 -0.001294843
-0.018014167 -0.017372817 -0.017550845 -0.016942902 0.0010340104 0.0012865033 0.0010202099 0.0012191427
0.0034714371 0.0035902837 0.0037559608 0.003910287 -0.045723766 -0.0444406 -0.04447121 -0.04313191
-0.024822364 -0.02409048 -0.024101702 -0.023281943 -0.022254668 -0.021477887 -0.021799803 -0.020833096
